checkpoint_actor.pth (torch_old, 80865 bytes, 6 tensors)

fc1.weight f4 [128, 24]
0	0x3f022f04	0.5085299
1	0x3e18f6e9	0.14937939
2	0x3cbea546	0.023272168
3	0x3c09a9df	0.008402317
4	0xbf1ae58a	-0.605065
5	0x3eacc017	0.33740303
6	0xbda82a59	-0.08211202
7	0xbcde903e	-0.02716839
8	0x3f03ea26	0.5152916
9	0xbccc84d8	-0.024965689
10	0xbc903184	-0.017601736
11	0xbe29c115	-0.16577561
12	0xbf40f27d	-0.7537001
13	0x3ea44361	0.32082656
14	0x3bd6955b	0.0065485663
15	0xbe48cc4b	-0.19609182
16	0x3f333e78	0.70017195
17	0x3e5ee8bd	0.2176847
18	0x3cf5984d	0.02997985
19	0xbb9b3f60	-0.0047377795
20	0xbf7c5684	-0.9856951
21	0x3f319a66	0.6937622
22	0xbc389946	-0.011267012
23	0xbcacf587	-0.02111317
24	0x3edc7919	0.4306114
25	0xbe6c57f0	-0.2308042
26	0x3dc84a71	0.097798236
27	0xbe11ec02	-0.14250186
28	0x3ebe4d8b	0.37168536
29	0xbe1d8af5	-0.15385039
30	0xbc8bf45f	-0.017084299
31	0xbe8371d6	-0.25672787
32	0x3f0a431e	0.5400866
33	0xbe6c68e3	-0.23086886
34	0x3d5b7796	0.053580843
35	0x3d915d99	0.070979305
36	0x3f47d990	0.7806635
37	0xbe83519d	-0.25648203
38	0x3c9ee2bb	0.019395223
39	0x3b9ea076	0.004840906
40	0x3ef68027	0.48144647
41	0xbe046319	-0.12928428
42	0x3d504e0d	0.050855685
43	0x3d1adf0d	0.037810374
44	0x3f84bd81	1.0370332
45	0xbdf5bcef	-0.11998927
46	0x3e488ea6	0.19585666
47	0xbd8f615c	-0.07000992
48	0xbe3c0ce3	-0.18364291
49	0xbe30ec35	-0.17277606
50	0xbc5d73ae	-0.01351635
51	0xbe5b6b15	-0.21427567
52	0xbddc8a6c	-0.107685894
53	0x3d2e8ade	0.042612903
54	0x3cbb2391	0.022844108
55	0xbe55c0ed	-0.20874377
56	0x3c160da8	0.009158529
57	0xbe02827e	-0.12745091
58	0x3d86dea9	0.06585438
59	0xbe1fac2c	-0.15593022
60	0x3e649304	0.22321707
61	0xbf8aa613	-1.0831932
62	0x3c11a8e0	0.008890361
63	0xbdd0076c	-0.101576656
64	0xbda957ed	-0.08268724
65	0xbe4abbc5	-0.19798191
66	0x3d37095c	0.04468666
67	0xbb0b1f07	-0.002122821
68	0x3f0252a0	0.50907326
69	0xc032cefb	-2.793883
70	0xbd1f8940	-0.03894925
71	0xbdcec662	-0.10096432
72	0x3d10e5e3	0.035375487
73	0x3d6e28dc	0.058144435
74	0x3c4583f3	0.012055385
75	0x3cfb05d6	0.030642431
76	0xbe3bf70c	-0.1835596
77	0xbca799b4	-0.020459034
78	0xbd8e9c41	-0.06963397
79	0x3c5582c2	0.013031663
80	0x3e181e8b	0.14855401
81	0x3d597744	0.053092256
82	0x3d11ec67	0.03562584
83	0xbd2d3b93	-0.042293143
84	0x3f24f9fe	0.6444396
85	0xbe8b71ef	-0.27235362
86	0xbcc818c3	-0.02442587
87	0x3d30f3b1	0.043201152
88	0x3d1a1eb5	0.03762694
89	0xbe53196d	-0.20615168
90	0xbd7281ab	-0.059205692
91	0xbdb35e22	-0.08758189
92	0x3fbd4ff0	1.479002
93	0xbe506dc7	-0.20354377
94	0xbe22c851	-0.15896727
95	0xbdf84c1d	-0.121238925
96	0x3e111635	0.14168628
97	0x3caf5f07	0.021407617
98	0xbd1e4454	-0.03863938
99	0x3d40e3fc	0.047092423
100	0x3fde6728	1.7375231
101	0x3e83c219	0.25734022
102	0x3d60b9da	0.05486474
103	0x3dffe9d0	0.12495768
104	0x3e319ccf	0.17344974
105	0x3e1aea91	0.15128542
106	0xbd061680	-0.0327363
107	0x3dc59740	0.09647989
108	0x3f24c41b	0.64361733
109	0x3eb472e7	0.35243914
110	0xbbb3b86d	-0.0054846318
111	0x3d1d6977	0.038430657
112	0x3ea51b0f	0.32247207
113	0x3b76e0dd	0.003767065
114	0x3d4d67a9	0.050147686
115	0x3e4a42f0	0.19752097
116	0xbee26dbc	-0.44224346
117	0x3f2898ba	0.6585804
118	0x3dc95809	0.098312445
119	0x3eaa73ef	0.33291575
120	0x3f236e27	0.63839954
121	0x3e6fd9f8	0.23422992
122	0x3d9157c5	0.07096819
123	0x3e2c741a	0.16841164
124	0xbe23edb1	-0.16008641
125	0xbfa6de6e	-1.303663
126	0x3d4ce5a0	0.050023675
127	0x3e07cd4b	0.13261907
128	0x3ebf2085	0.37329498
129	0xbd2d8255	-0.042360622
130	0x3d04059a	0.032231905
131	0xbc1fe64c	-0.009759497
132	0x3eabee71	0.33580354
133	0xbefdb081	-0.49548724
134	0xbd3d3850	-0.046196282
135	0xbd27c291	-0.040957037
136	0x3e31c1d2	0.17359093
137	0xbd0b7862	-0.034050353
138	0xbe007cb0	-0.12547565
139	0x3e9fb88b	0.31195483
140	0x3f200879	0.6251293
141	0xbeb9a1f8	-0.36256385
142	0xbe43565a	-0.1907591
143	0x3e9eef77	0.31042072
144	0xbe1babf3	-0.15202312
145	0x3f4c0ca8	0.7970681
146	0x3c628d41	0.013827623
147	0xbc20802b	-0.009796183
148	0x3f3dfeb6	0.74216783
149	0xbeb0d4a2	-0.34537226
150	0x3c65a115	0.014015456
151	0xbd8a767a	-0.06760879
152	0xbc2a29c7	-0.010385937
153	0x3f719cd3	0.9437992
154	0xbba9700d	-0.005170828
155	0x3d6c0b89	0.05762819
156	0x3d923ca1	0.0714047
157	0x3eb9798c	0.36225545
158	0xbd9b5224	-0.075840265
159	0x3dbab9e7	0.09117489
160	0xbc7825ac	-0.0151457
161	0x3f47092e	0.7774838
162	0xbd073496	-0.033009134
163	0xbd9d1b62	-0.076712385
164	0xbf280ec7	-0.6564755
165	0x3fbd4dcd	1.4789368
166	0xbda2facb	-0.07957991
167	0xbd7bd7fb	-0.061485272
168	0x3e66ccd9	0.2253908
169	0x3ece7899	0.40326384
170	0x3d558dd6	0.05213722
171	0x3e8fcbb8	0.28085113
172	0xbf06842e	-0.5254544
173	0xbf550c35	-0.8322175
174	0xbd2bf5b4	-0.041982368
175	0x3e914022	0.28369242
176	0x3ec8ed3d	0.39243498
177	0x3f0365d8	0.51327276
178	0xbcd04680	-0.025424242
179	0x3f714edc	0.94260955
180	0xbe2c5ccd	-0.16832276
181	0xbf88b7fc	-1.0681148
182	0xbd40b0b7	-0.04704353
183	0x3f850bfc	1.0394282
184	0x3ecbb7d8	0.397887
185	0x3e96633f	0.29372594
186	0xbd9304cd	-0.0717865
187	0xbf874b7a	-1.0569909
188	0x3df32c5d	0.11873696
189	0xbeb32af0	-0.34993696
190	0x3d70725c	0.05870281
191	0xbf69d708	-0.91343737
192	0x3e880034	0.26562655
193	0xbeb9e810	-0.36309862
194	0x3cd5d733	0.026103592
195	0x3d209fbd	0.03921484
196	0xbf48654f	-0.78279585
197	0x3e26f28a	0.16303459
198	0x3b0e1692	0.0021680933
199	0x3d96a8b8	0.07356399
200	0x3e96b82c	0.29437387
201	0xbebfd2c9	-0.37465504
202	0x3cf2be28	0.02963169
203	0x3ec36f30	0.38170767
204	0x3e6ac418	0.22926366
205	0x3eec9ea2	0.46214777
206	0xbd217dfc	-0.03942679
207	0x3e94ac70	0.2903781
208	0x3e783b6f	0.24241422
209	0xbdd125ba	-0.10212274
210	0xbc00ee40	-0.007869303
211	0x3e9a6907	0.30158255
212	0x3fb2f192	1.3979971
213	0x3eedeba2	0.46468836
214	0x3d810d37	0.06301349
215	0x3ebd9165	0.3702499
216	0xbdd53718	-0.10410899
217	0x3f9e4a9f	1.2366523
218	0xbcbe6f8d	-0.023246551
219	0x3d4f678b	0.050635856
220	0x3efaf65a	0.49016076
221	0xbf302eb6	-0.68821275
222	0xbc6709fd	-0.0141015025
223	0x3d23c593	0.039983343
224	0x3d27a34e	0.040927224
225	0x3fb6d23a	1.4282906
226	0x3d89f435	0.06736032
227	0x3ee64fcf	0.44982764
228	0x3ef4050f	0.4766011
229	0xbe3a5c39	-0.18199243
230	0xbd7fad6d	-0.06242125
231	0x3ebaec73	0.3650852
232	0x3ca5658c	0.020190023
233	0x3fd3e406	1.6553962
234	0xbd4fa288	-0.05069211
235	0x3e6fa180	0.23401451
236	0x3f1ea73c	0.6197393
237	0x3eb50993	0.35358867
238	0x3d69bc28	0.057064205
239	0x3e832f11	0.25621846
240	0x3dc900dc	0.09814617
241	0x3e098e70	0.13433242
242	0xbc131e24	-0.008979354
243	0x3dcb4791	0.099257596
244	0x3f13fa63	0.57803935
245	0x3f78cb59	0.97185284
246	0xbcacdf42	-0.021102551
247	0x3d3e6cbb	0.046490412
248	0x3e13c63f	0.14431094
249	0x3e7a5bb2	0.24449041
250	0xbd912788	-0.07087618
251	0x3dcfdaac	0.1014913
252	0x3e34cf0e	0.1765711
253	0x3f2ec541	0.68269736
254	0x3d50f521	0.051015023
255	0x3b2f565a	0.002675435

fc1.bias f4 [128]
0	0xbec5d798	-0.38641047
1	0xbf3a6231	-0.7280608
2	0x3e5f2a83	0.2179356
3	0xbf11538d	-0.56768113
4	0xbe65c70a	-0.22439209
5	0xbe8dd8e8	-0.2770455
6	0x3de49b1c	0.11162397
7	0xbee2d9bb	-0.4430674
8	0xbe987886	-0.29779452
9	0x3e611475	0.2198046
10	0xbe832784	-0.25616086
11	0xbe439f57	-0.19103752
12	0xbf075533	-0.5286438
13	0xbe770696	-0.24123606
14	0xbee8418d	-0.4536251
15	0xbde5216f	-0.111880176
16	0xbed0be1e	-0.40770048
17	0x3ec8ef8a	0.39245254
18	0xbf1f8df3	-0.6232597
19	0xbebd3cc6	-0.3696043
20	0x3f3a0385	0.7266162
21	0xbf06a5a8	-0.5259652
22	0xbe91d32c	-0.28481424
23	0xbe242b10	-0.16032052
24	0xbe891fb5	-0.26782003
25	0xbe6a7b66	-0.22898635
26	0xbe67287e	-0.2257404
27	0xbd8205b8	-0.06348747
28	0xbe7c71d1	-0.24652793
29	0x3f2190b5	0.6311143
30	0xbf3cca12	-0.73745835
31	0xbf0e5b3e	-0.55607975
32	0xbe7c38b3	-0.24631004
33	0xbdbbda7d	-0.09172533
34	0xbe9d0fc6	-0.30676097
35	0x3dc88a65	0.09792022
36	0xbee268ca	-0.44220573
37	0x3cb053d5	0.02152435
38	0x3e140364	0.14454418
39	0x3da27585	0.07932571
40	0xbf087376	-0.5330118
41	0xbf12cbe3	-0.57342356
42	0xbf87a066	-1.0595825
43	0xbe9a0efc	-0.30089557
44	0x3e74686b	0.23867957
45	0xbef00cb7	-0.468847
46	0xbe8bc14c	-0.2729591
47	0xbe023138	-0.12714088
48	0x3e7602d4	0.24024516
49	0xbdf70876	-0.12062161
50	0xbe489499	-0.19587936
51	0xbf2dbd64	-0.6786711
52	0xbe942f29	-0.2894223
53	0xbef5a475	-0.47977033
54	0xbec52e69	-0.3851197
55	0x3d249b7e	0.04018735
56	0x3e3a266a	0.18178716
57	0xbeb01c95	-0.34396806
58	0xbe346c0c	-0.17619342
59	0xbed237bd	-0.4105815
60	0xbd02f75a	-0.031974174
61	0xbf0d78db	-0.55262536
62	0xbf46b088	-0.77613115
63	0x3da4f49a	0.080544665
64	0xbf3c750a	-0.7361609
65	0xbea33230	-0.31874228
66	0xbdeb609b	-0.114930354
67	0xbf17e477	-0.59332985
68	0xbd1cbacd	-0.038264085
69	0xbeeb42be	-0.45949358
70	0xbf0d832f	-0.55278295
71	0xbeba6a86	-0.36409396
72	0x3dbf62fd	0.093450524
73	0xbe9c6128	-0.30542874
74	0x3e980fff	0.29699704
75	0xbf3bea42	-0.73404324
76	0xbeb03279	-0.34413508
77	0xbbfb91de	-0.007677301
78	0xbf2bb615	-0.6707471
79	0xbf19f26a	-0.6013552
80	0x3ea2465b	0.31694302
81	0xbea7b6f2	-0.32756764
82	0xbeb2b844	-0.3490621
83	0xbf210a73	-0.6290657
84	0xbec6fa10	-0.38862658
85	0x3ebfd5a1	0.37467673
86	0x3f1f6431	0.62262255
87	0xbf098776	-0.5372232
88	0x3dfdde2d	0.12395892
89	0x3e8373fc	0.25674427
90	0xbe0b73a8	-0.13618338
91	0xbe8f0a85	-0.27937713
92	0xbeaba05a	-0.33520776
93	0xbf083cd0	-0.5321779
94	0xbe097acb	-0.13425748
95	0xbf886bff	-1.0657958
96	0xbed1c759	-0.40972403
97	0xbeab445c	-0.33450592
98	0xbed5c009	-0.41748074
99	0xbdf26712	-0.11836065
100	0xbf2c92f6	-0.67411745
101	0x3f5f3867	0.8719544
102	0xbe8e5992	-0.27802712
103	0xbe3b542c	-0.18293828
104	0xbf0b6622	-0.5445272
105	0xbf2f1f71	-0.6840735
106	0x3d96f607	0.07371145
107	0xbf69009d	-0.9101656
108	0xbcef10ea	-0.02918287
109	0xbe32201d	-0.17395063
110	0xbe359014	-0.17730743
111	0xbecd0e50	-0.40049982
112	0xbaff6f07	-0.0019488045
113	0x3f797932	0.97450554
114	0xbf107de0	-0.5644207
115	0xbedf8aac	-0.43660486
116	0xbe88023a	-0.265642
117	0xbefbaaa5	-0.4915363
118	0x3e2cc085	0.16870315
119	0xbe8c264f	-0.27372977
120	0xbf1d6e28	-0.6149621
121	0xbf01018c	-0.50392985
122	0xbe334190	-0.17505479
123	0xbf0c36bf	-0.54771036
124	0xbefc54af	-0.49283358
125	0xbe7f415b	-0.24927275
126	0xbeba4b36	-0.36385506
127	0xbf0271a8	-0.50954676

fc2.weight f4 [128, 128]
0	0xbf264c27	-0.6495995
1	0xbea3c58c	-0.31986654
2	0xbf742429	-0.95367676
3	0xbf76a8d8	-0.96351385
4	0xbf374ab9	-0.7159839
5	0x3e84e0dd	0.25952807
6	0xbebcd81f	-0.36883637
7	0xbdfaeb39	-0.122518964
8	0xbed6c8df	-0.41950127
9	0xbf3aa9d5	-0.72915393
10	0xbf065ea9	-0.5248819
11	0xbdb041c6	-0.08606295
12	0x3e50387a	0.20334044
13	0x3e78b199	0.24286498
14	0xbf9c37da	-1.2204545
15	0xbe115a1b	-0.14194529
16	0xbefb0e24	-0.49034226
17	0xbed61259	-0.41810873
18	0xbed4d0f5	-0.41565672
19	0xbe1f8234	-0.15577012
20	0xbed8d158	-0.42347217
21	0xbe3553b0	-0.17707705
22	0xbf24bf4f	-0.64354414
23	0xbec6ee56	-0.3885371
24	0x3c023ca3	0.007949027
25	0x3e3cb810	0.1842959
26	0xbe7b7d53	-0.24559526
27	0x3e99af79	0.30016688
28	0xbe4cc100	-0.19995499
29	0xbf2c4a35	-0.6730073
30	0xbe83c84a	-0.25738746
31	0x3efecf36	0.49767464
32	0xbecc0550	-0.39847803
33	0xbefcc7a7	-0.49371073
34	0x3f1da2c5	0.6157649
35	0xbd8a89b6	-0.067645475
36	0xbf2f23d5	-0.6841405
37	0xbea7c616	-0.32768315
38	0xbf06f8ea	-0.5272356
39	0xbed9a6e8	-0.42510152
40	0xbf1ec57f	-0.62020105
41	0xbf818c52	-1.0120947
42	0xbe255a33	-0.1614769
43	0xbe55a012	-0.20861843
44	0x3f29b951	0.66298395
45	0xbebf8d5d	-0.3741254
46	0x3ea2df07	0.3181078
47	0xbe0afcc3	-0.13572983
48	0xbf636423	-0.8882467
49	0xbe8216e6	-0.25408095
50	0xbeefbc0c	-0.46823156
51	0xbe431bd9	-0.19053592
52	0xbe0da32b	-0.13831775
53	0x3c8181be	0.015808936
54	0xbe97e8f5	-0.2966992
55	0xbeba246e	-0.3635592
56	0xbe86853d	-0.26273528
57	0x3c8ef6fd	0.017451758
58	0xbf2d14c0	-0.67609787
59	0xbe09510f	-0.13409828
60	0xbef66c69	-0.48129585
61	0x3e8460d5	0.25855127
62	0x3f002b49	0.5006605
63	0xbb35cbb1	-0.0027739818
64	0x3cbfe4e7	0.023424579
65	0x3e512bd4	0.20426875
66	0x3eb0ea54	0.34553778
67	0x3e8d3882	0.27582175
68	0xbe1e5dae	-0.15465423
69	0x3c2e65a2	0.010644348
70	0xbf0ced73	-0.5504982
71	0x3cddb09a	0.02706175
72	0xbeac81e1	-0.3369284
73	0x3dde13bd	0.108436085
74	0xbdf2c240	-0.118534565
75	0xbeb886b3	-0.36040267
76	0xbf1693b8	-0.5881915
77	0xbfff189a	-1.9929383
78	0xbeb71c61	-0.3576384
79	0xbf0a7502	-0.5408479
80	0xbe92b64b	-0.28654703
81	0xbc6c6481	-0.014428259
82	0x3ef5bdaa	0.47996265
83	0xbcf21664	-0.029551692
84	0xbe3286cc	-0.17434233
85	0xbebeeda4	-0.3729068
86	0xbf107a68	-0.5643678
87	0xbeb1ca5c	-0.347247
88	0xbe4111f6	-0.18854508
89	0x3cbb293d	0.022846812
90	0x3ead1718	0.33806682
91	0xbf89657a	-1.0734093
92	0xbd8ad05f	-0.06778025
93	0xbf0aba9e	-0.54191005
94	0xbee54e56	-0.44786328
95	0xbf014777	-0.5049967
96	0x3b8cdf85	0.0042991065
97	0xbe8c86a7	-0.27446482
98	0xbe618cd1	-0.22026373
99	0xbd491ec0	-0.04910159
100	0x3d71cd20	0.059033513
101	0xbf521916	-0.8206953
102	0xbf2ce402	-0.6753541
103	0xbd8573e7	-0.06516247
104	0x3ea2b594	0.31779158
105	0xbf0f3277	-0.5593638
106	0x3e1e0dc2	0.15434936
107	0x3daa709e	0.08322261
108	0xbe50749e	-0.20356986
109	0xbdbab2d2	-0.091161385
110	0xbec88e20	-0.39170933
111	0xbf282a04	-0.6568911
112	0x3dd6c6ba	0.10487123
113	0xbf50b206	-0.8152164
114	0x3e269a4f	0.16269802
115	0xbd99f3d3	-0.07517209
116	0xbf0497a8	-0.5179391
117	0xbf362c66	-0.71161497
118	0xbe0a0b2d	-0.13480826
119	0xbd5a1419	-0.053241823
120	0xbe43cbf2	-0.19120768
121	0x3e2bd347	0.16779815
122	0x3c106868	0.008813955
123	0xbe36b5f9	-0.17842855
124	0xbe15cd33	-0.14629059
125	0xbea462d4	-0.3210665
126	0xbdae76c5	-0.08518747
127	0x3ed77910	0.4208455
128	0xbfa5e7f8	-1.2961416
129	0x3e8c772e	0.27434677
130	0xbe991cce	-0.2990479
131	0x3cfed6ff	0.031108378
132	0xbe6c2c00	-0.2306366
133	0xbdebf80c	-0.115219206
134	0xbd170013	-0.036865305
135	0x3e322365	0.17396314
136	0x3ef2915c	0.47376525
137	0xbd9e1213	-0.07718291
138	0xbdb8b717	-0.090192966
139	0xbeeb1807	-0.4591677
140	0x3b618989	0.0034414253
141	0xbf0bd07b	-0.5461499
142	0x3ddb9dc5	0.107234515
143	0x3e9f0167	0.31055757
144	0x3f3cd818	0.7376723
145	0xbed51e5a	-0.4162472
146	0xbe0c5056	-0.1370252
147	0x3ec4c681	0.38432696
148	0xbe8799bb	-0.26484475
149	0x3f354e07	0.70822185
150	0xbed2c875	-0.41168562
151	0xbe881985	-0.2658197
152	0x3e0f891d	0.14017148
153	0xbe4209f9	-0.18949117
154	0xbf1eadd2	-0.6198398
155	0xbee6cce6	-0.450782
156	0x3e0b7609	0.13619246
157	0xbf8308b7	-1.0237035
158	0x3ef77ee7	0.48339006
159	0xbe7fa961	-0.24966957
160	0xbf931bab	-1.1492819
161	0x3ca71949	0.0203978
162	0xbc89134a	-0.01673283
163	0x3f210fc6	0.62914693
164	0x3e621bda	0.22080937
165	0xbe7f4490	-0.24928498
166	0x3d3bb6ed	0.04582875
167	0xbeb0bcbe	-0.34519
168	0x3f310ef0	0.6916342
169	0x3e893fb7	0.26806423
170	0xbe1a64a3	-0.15077452
171	0x3e2e979d	0.17050023
172	0x3f4beda3	0.7965948
173	0xbf05637e	-0.5210494
174	0x3f3472aa	0.70487463
175	0xbf1a0cba	-0.6017567
176	0xbec4d650	-0.38444757
177	0x3e5d85de	0.21633098
178	0xbf183f4b	-0.5947158
179	0xbdce7e13	-0.100826405
180	0xbf0f62f4	-0.56010365
181	0x3e07895e	0.13235995
182	0xbeb90a87	-0.36140844
183	0x3ebb5359	0.36587027
184	0xbd5cd320	-0.053912282
185	0x3e125a5e	0.14292285
186	0x3c298e4c	0.010348868
187	0x3d1b21d3	0.037874054
188	0x3e2cfd33	0.16893463
189	0xbbd8dfdd	-0.0066184835
190	0xbeb2df1c	-0.34935844
191	0x3f3cd006	0.7375492
192	0x3d8c97bf	0.06864881
193	0x3ef6f63c	0.48234737
194	0xbde936bd	-0.113873936
195	0x3e42fbe8	0.19041407
196	0x3f149b2c	0.58049273
197	0xbf8abc63	-1.0838741
198	0x3e47084d	0.1943676
199	0x3c9e9d66	0.019362163
200	0xbf5ba50d	-0.8579872
201	0x3eae2eef	0.34020182
202	0xbe8c6ce0	-0.27426815
203	0x3ea02a80	0.31282425
204	0x3e950f5c	0.2911328
205	0x3e7dea37	0.24796377
206	0x3d944f18	0.072416484
207	0xbefe1c02	-0.49630743
208	0xbdc1a50c	-0.09455308
209	0x3e93b907	0.28852102
210	0x3d8968de	0.06709455
211	0x3f0bc605	0.5459903
212	0xbf1f43ce	-0.62212837
213	0x3e3a04bb	0.18165867
214	0xbf08d127	-0.5344414
215	0xbea48fe1	-0.3214102
216	0xbeaeb085	-0.3411905
217	0x3ed604a3	0.41800413
218	0x3e33faf2	0.17576197
219	0x3ecee0cd	0.40405884
220	0xbf579667	-0.8421387
221	0xbdcf11a4	-0.101107866
222	0xbe985bcc	-0.29757535
223	0x3f69eb43	0.91374606
224	0x3ef70be2	0.48251253
225	0x3e394e97	0.18096386
226	0xbd8755e7	-0.066081814
227	0x3e5d8a84	0.21634871
228	0x3ee78b19	0.4522331
229	0xbf95c4cc	-1.1700683
230	0xbdb190b6	-0.086701795
231	0xbe2df50d	-0.1698801
232	0x3ea35dfe	0.31907648
233	0xbe5bee20	-0.21477556
234	0x3eb13733	0.34612426
235	0x3e8ee323	0.27907667
236	0xbe8cf357	-0.27529404
237	0x3e300f80	0.17193413
238	0x3ef4b004	0.4779054
239	0xbebc27be	-0.3674907
240	0x3dc3fe17	0.09569948
241	0xbfb77d50	-1.4335117
242	0x3e15011a	0.14551201
243	0xbf14cec1	-0.5812798
244	0x3e7360bb	0.23767368
245	0x3e30d3bf	0.17268275
246	0xbe917342	-0.28408247
247	0x3cc55282	0.024087194
248	0x3be6d020	0.0070438534
249	0x3e3477e6	0.17623863
250	0xbdaef724	-0.08543232
251	0xbf141737	-0.57847923
252	0xbd8a0aef	-0.06740367
253	0xbebb3116	-0.36560887
254	0xbeba7f2a	-0.36425143
255	0x3ed1b966	0.4096176

fc2.bias f4 [128]
0	0xbf4b2da7	-0.79366535
1	0xbf02864c	-0.5098617
2	0xbe50c072	-0.20385912
3	0xbe50283c	-0.20327848
4	0xbe0594dd	-0.13045068
5	0xbe35abc1	-0.177413
6	0xbee20649	-0.4414542
7	0xbe32d927	-0.1746565
8	0xbe571af5	-0.21006377
9	0xbe53cbc3	-0.20683198
10	0xbeb8667e	-0.36015695
11	0xbe12540e	-0.14289877
12	0xbf10cf03	-0.56565875
13	0xbf26f766	-0.6522125
14	0xbf30036f	-0.6875524
15	0xbec7ad65	-0.38999477
16	0xbede082d	-0.43365613
17	0xbea42588	-0.32059884
18	0xbd9d69c4	-0.07686189
19	0x3d370e9d	0.04469167
20	0x3c42e99e	0.011896519
21	0xbed0843c	-0.40725887
22	0xbd1eaa91	-0.038736884
23	0x3e8212c6	0.25404948
24	0xbf1d6c7a	-0.6149365
25	0xbedb5387	-0.42837164
26	0xbc957913	-0.01824621
27	0xbf170bda	-0.5900246
28	0x3eafed61	0.34360793
29	0xbda8e2df	-0.08246397
30	0xbf00d9d4	-0.5033238
31	0x3e14c6fb	0.1452903
32	0xbefb0c19	-0.49032667
33	0xbf12bb96	-0.57317483
34	0xbf5a51d9	-0.8528114
35	0xbecab31b	-0.39589772
36	0xbdfac2c9	-0.122441836
37	0xbe9daab1	-0.3079429
38	0x3ea081a9	0.31348923
39	0xbf0c96a4	-0.5491736
40	0x3d92e97a	0.07173438
41	0x3eefd689	0.46843365
42	0xbf2549bd	-0.6456564
43	0xbdf0ccef	-0.11757838
44	0xbe88ad28	-0.26694608
45	0x3ed55ff8	0.4167478
46	0xbd14cb95	-0.036326963
47	0xbe70bc6d	-0.23509379
48	0xbf6bf2b0	-0.92167187
49	0xbdb2e5ca	-0.08735235
50	0xbf17e4ea	-0.5933367
51	0x3e8b6440	0.27224922
52	0xbf048dfd	-0.51779157
53	0x3cb2bd3d	0.021818751
54	0xbe33008f	-0.17480682
55	0xbf34f10e	-0.7068032
56	0xbe7f15f8	-0.24910724
57	0xbe4dd566	-0.20100936
58	0xbf0edacd	-0.55802613
59	0xbe3e3bc3	-0.18577485
60	0xbe4082f8	-0.1879996
61	0xbe02d6c8	-0.12777245
62	0xbe9fe33e	-0.3122806
63	0x3e85cfde	0.26135153
64	0xba8cf816	-0.0010755088
65	0xbe08181e	-0.1329045
66	0xbeb59e75	-0.35472456
67	0x3dbeb0f3	0.09311094
68	0x3cfdae8e	0.030967023
69	0xbee54101	-0.44776157
70	0xbef310a3	-0.4747363
71	0xbf3d9736	-0.74058855
72	0x3eefbe97	0.46825096
73	0x3e296929	0.16544022
74	0xbd9c4507	-0.076303534
75	0x3d3460c6	0.044037603
76	0xbe73655c	-0.23769134
77	0xbf1a8c24	-0.6037009
78	0xbdabd5d3	-0.08390393
79	0xbf01bec0	-0.50681686
80	0x3e4e9758	0.2017492
81	0xbd687456	-0.05675157
82	0xbf897b00	-1.0740662
83	0x3df78f9c	0.12087938
84	0x3e3d5050	0.18487668
85	0xbed7d60d	-0.42155495
86	0xbe55b970	-0.2087152
87	0xbe7503b2	-0.23927191
88	0xbbcba45d	-0.006214662
89	0xbe4eb065	-0.20184477
90	0xbe7261a2	-0.23670056
91	0xbdb85e5c	-0.090023726
92	0xbed15862	-0.40887743
93	0xbdeb7af9	-0.114980645
94	0xbe76553e	-0.24055955
95	0xbf251200	-0.6448059
96	0xbde3c17d	-0.11120889
97	0xbf048227	-0.51761097
98	0xbecdd893	-0.40204296
99	0xbe7f3576	-0.24922737
100	0xbf3b958f	-0.73275083
101	0xbe86bfe3	-0.26318273
102	0xbf11dc72	-0.56977
103	0xbe4e390d	-0.2013895
104	0xbdec7674	-0.11546031
105	0x3b5f5ef6	0.00340837
106	0x3c89fba4	0.016843624
107	0xbf2d0a4b	-0.6759383
108	0xbe6efd8f	-0.23338912
109	0x3e41081f	0.18850754
110	0xbe1419ff	-0.14463042
111	0x3ea06b5f	0.31331918
112	0xbe787f64	-0.24267346
113	0xbde96d32	-0.113977805
114	0xbe8c8a6b	-0.27449355
115	0xbdc674a2	-0.09690215
116	0xbde13216	-0.10995881
117	0xbec81c78	-0.3908422
118	0xbe6010c0	-0.2188139
119	0xbda10067	-0.07861405
120	0xbe4b2439	-0.19838037
121	0xbe9333d6	-0.28750485
122	0xbd865253	-0.06558671
123	0xbf20f043	-0.6286661
124	0xbebc44f8	-0.3677137
125	0xbe14556b	-0.1448571
126	0xbf004c99	-0.5011688
127	0xbd052b0b	-0.032511752

fc3.weight f4 [2, 128]
0	0x3f864eae	1.0492761
1	0xbf4219ee	-0.75820816
2	0xbe20bbf6	-0.15696701
3	0x3e3e79c0	0.18601131
4	0xbeccd29c	-0.40004432
5	0xbf04cb2d	-0.5187252
6	0xbcd86e6d	-0.026419843
7	0xbe18fde3	-0.149406
8	0xbe2b3c29	-0.16722168
9	0xbdc50cb6	-0.09621565
10	0x3e07e7e6	0.13272056
11	0x3cbf9f6d	0.02339145
12	0xbe309e8c	-0.17247981
13	0xbf88fba0	-1.070179
14	0xbe89c03e	-0.26904482
15	0xbd401f33	-0.046904754
16	0x3e2d46a9	0.16921486
17	0xbd07f221	-0.033189896
18	0x3d599696	0.053122126
19	0x3b442dae	0.0029934454
20	0xbe07491b	-0.13211481
21	0x3e36ee78	0.17864406
22	0x3f29391b	0.6610276
23	0x3ec9c096	0.39404744
24	0xbe6b7e7a	-0.22997466
25	0x3ebc9830	0.3683486
26	0x3cbaf77c	0.022823088
27	0xbf23a4a2	-0.63923085
28	0x3e911eb1	0.28343728
29	0x3d6920b0	0.05691594
30	0xbedf2c63	-0.43588552
31	0xbeb5be78	-0.3549688
32	0xbe6d7d66	-0.23192367
33	0xbe454731	-0.19265439
34	0x3f846def	1.0346049
35	0xbf85551d	-1.04166
36	0x3ea90671	0.33012727
37	0xbbb6074c	-0.005555069
38	0x3e21837c	0.15772814
39	0xbf0163fd	-0.50543195
40	0x3ef62aaf	0.4807944
41	0x3e4c1854	0.19931155
42	0x3ee2ade5	0.44273296
43	0x3ae6949c	0.0017591896
44	0x3d5f87a0	0.0545727
45	0x3d490b06	0.04908278
46	0x3be727c9	0.0070543033
47	0x3e52a4bf	0.20570658
48	0x3d4b7373	0.049670648
49	0xbc93e0e4	-0.018051572
50	0xbf1642d5	-0.5869573
51	0xbd60fa2c	-0.054926082
52	0xbe3b3b70	-0.18284392
53	0x3c970898	0.018436715
54	0xbdf950e1	-0.121736296
55	0xbea821a4	-0.32838166
56	0x3e2ae425	0.16688593
57	0x3c8414ba	0.016123164
58	0xbfac6737	-1.3468999
59	0xbb1b9382	-0.0023739045
60	0xbe43f1b9	-0.19135179
61	0x39554100	0.00020337477
62	0xbbbb0824	-0.0057077575
63	0x3f3471c5	0.704861
64	0xbe8f135a	-0.27944452
65	0xbee2b28b	-0.44276842
66	0xbdda3d84	-0.106562644
67	0xbf7ae4b7	-0.9800524
68	0xbb919289	-0.004442517
69	0xbef2b190	-0.47401094
70	0x3f754630	0.9581022
71	0xbeeacdd1	-0.4586015
72	0x3e5f89b0	0.21829867
73	0x3f2f384c	0.6844528
74	0xbc5f4124	-0.013626371
75	0xbe20b5d6	-0.15694365
76	0xbf90d9a2	-1.1316416
77	0x3ea27f08	0.31737542
78	0x3eb5a820	0.35479832
79	0xbf26e722	-0.6519643
80	0x3ef32c56	0.47494763
81	0x3c8eeda6	0.017447304
82	0x3e801567	0.2501633
83	0xbd738724	-0.059455052
84	0x3de158a2	0.110032335
85	0xbebf8142	-0.37403303
86	0x3f4ea0da	0.8071419
87	0xbeed2109	-0.46314266
88	0x3de8e5e9	0.11371977
89	0xbf65478b	-0.8956229
90	0xbd898bcb	-0.067161165
91	0x3ec267bb	0.37969765
92	0xbe4f37a6	-0.20236072
93	0x3e827724	0.25481522
94	0xbe044d21	-0.12920047
95	0xbd7045cd	-0.058660317
96	0x3ca046c1	0.019564988
97	0xbf33259e	-0.69979274
98	0xbfab6bec	-1.339231
99	0x3e2b4b43	0.16727929
100	0xbe4a2e1b	-0.1974415
101	0x3d178623	0.036993157
102	0x3f9052fb	1.1275324
103	0x3cd57822	0.02605826
104	0x3bddbf47	0.006767187
105	0x3e413950	0.18869519
106	0x3ed659e0	0.41865444
107	0xbec69fc7	-0.38793775
108	0xbd88aa8c	-0.06673154
109	0x3e7d562a	0.247399
110	0x3d97b104	0.0740681
111	0x3eb3dd44	0.3512975
112	0x3e6fcf82	0.23419002
113	0xbda30d82	-0.07961561
114	0x3c3fe5cd	0.011712504
115	0xbe1229ba	-0.1427373
116	0xbe66f2de	-0.22553584
117	0xbe0e2d4a	-0.13884464
118	0x3c8dbacc	0.017300986
119	0xbee2a114	-0.44263518
120	0x3e37f556	0.17964682
121	0x3f04728d	0.5173729
122	0xbd08083f	-0.03321099
123	0xbd35b6c6	-0.04436376
124	0x3e49e5d7	0.19716583
125	0x3c34f7c5	0.011045401
126	0xbe0849db	-0.13309424
127	0x3f140366	0.57817686
128	0x3f5775bf	0.8416404
129	0xbd427441	-0.04747415
130	0xbd363aef	-0.044489797
131	0xbed4a62e	-0.41533035
132	0xbecdf48d	-0.4022564
133	0xbfaa6812	-1.331301
134	0xbedfdddc	-0.43723953
135	0x3ea542db	0.3227757
136	0x3d3a25fc	0.04544638
137	0x3f9540c9	1.1660396
138	0xbf6ee9da	-0.9332558
139	0x3c557bf8	0.013030045
140	0x3f92b08b	1.1460127
141	0x3ed4ae79	0.41539362
142	0xbb5bd913	-0.0033546134
143	0xbf8dbf35	-1.1073977
144	0x3f2c15bc	0.67220664
145	0x3e7f28d2	0.24917915
146	0xbe20ed2d	-0.15715475
147	0x3d14645a	0.036228515
148	0x3deb41aa	0.11487134
149	0xbe17a15d	-0.14807649
150	0x3ea19595	0.31559435
151	0xbef72c9c	-0.48276222
152	0xbf94dcb2	-1.1629851
153	0x3e877ca9	0.26462296
154	0x3c74615d	0.014915791
155	0x3f248c49	0.6427656
156	0x3f0a4f98	0.540277
157	0x3f1f0b9e	0.621271
158	0xbf971a8d	-1.1804978
159	0xbef529a7	-0.4788334
160	0x3e84c5a8	0.2593205
161	0xbfae2410	-1.3604755
162	0xbdc4f38f	-0.096167676
163	0x3dc2598b	0.09489735
164	0x3f0f5dec	0.5600269
165	0xbebb71e6	-0.36610335
166	0x3f1fb4c5	0.6238521
167	0xbf0dd2cb	-0.5539977
168	0xbf8be4ce	-1.0929201
169	0x3f897666	1.0739257
170	0x3eeb7681	0.4598885
171	0x3d9ba00a	0.075988844
172	0x3ea7dea9	0.32787064
173	0x3f4dade9	0.8034349
174	0xbf4ef6dd	-0.80845433
175	0x3f6429d1	0.89126307
176	0x3f8189e3	1.0120205
177	0xbbcaf2b0	-0.0061934814
178	0x3f9496d0	1.1608524
179	0xbf7fc9c0	-0.9991722
180	0xbf31bb1f	-0.6942615
181	0x3b2925f8	0.0025809985
182	0x3ee32b9c	0.4436921
183	0xbe9d1ba7	-0.3068516
184	0x3d4f35d7	0.050588455
185	0xbe684577	-0.22682749
186	0xbd85e294	-0.06537357
187	0x3deff8a7	0.117173485
188	0x3f4897a4	0.78356385
189	0x3ec4e41f	0.38455293
190	0xbead2fdb	-0.33825573
191	0x3f05adc9	0.522183
192	0xbf49e93d	-0.7887152
193	0xbd872994	-0.06599727
194	0x3f60c677	0.87802833
195	0x3f1aaad9	0.6041694
196	0xbc2ef180	-0.010677695
197	0xbe2185ef	-0.15773748
198	0x3f030e83	0.5119402
199	0xbf0f7428	-0.56036615
200	0x3ed7caf9	0.42147043
201	0x3f27f046	0.65601003
202	0x3e97c082	0.2963906
203	0xbf1ef288	-0.62088823
204	0xbe4f7682	-0.20260051
205	0x3dbbb2f6	0.091649935
206	0x3e881885	0.26581207
207	0x3f35be0f	0.7099313
208	0xbf2deb35	-0.6793702
209	0x3d4850da	0.04890523
210	0xbf58ace1	-0.8463879
211	0xbf343fe2	-0.7040998
212	0x3f3d8f47	0.7404675
213	0xbdae8ca4	-0.08522919
214	0xbdf517b3	-0.11967411
215	0x3ea95f8e	0.33080715
216	0x3ebc200c	0.367432
217	0xc00d5525	-2.2083218
218	0x3f1bb814	0.60827756
219	0xbe5e23a5	-0.21693285
220	0xbf2aae3e	-0.6667212
221	0xbf839dd1	-1.0282537
222	0xbf7024dd	-0.9380625
223	0x3f3500a0	0.7070408
224	0x3d11de76	0.035612546
225	0xbfcd7f22	-1.6054423
226	0x3e2572c7	0.16157065
227	0x3f91eb4c	1.1399932
228	0xbde051f7	-0.109531336
229	0xbd94d013	-0.072662495
230	0x3fb2a3c4	1.3956227
231	0xbd924616	-0.07142274
232	0xbed67486	-0.41885775
233	0x3bffab0d	0.0078023733
234	0xbf248a39	-0.6427341
235	0x3d96c8fe	0.07362555
236	0xbd874447	-0.0660482
237	0xbe6c7a69	-0.23093571
238	0x3eb04a66	0.34431762
239	0xbd4f0828	-0.050544888
240	0x3d8cf69c	0.068829745
241	0xbe2bc72e	-0.167752
242	0x3d8adc52	0.06780304
243	0xbf26819d	-0.65041524
244	0xbf980641	-1.1876909
245	0xbf0f7522	-0.56038105
246	0x3ca249de	0.019810613
247	0xbf26ef52	-0.65208924
248	0x3e17185e	0.14755389
249	0xbd47b339	-0.048754904
250	0xbd337e4c	-0.043821618
251	0x3f163faa	0.58690894
252	0xbddebcd7	-0.10875862
253	0x3cf33bae	0.029691543
254	0x3f9310e8	1.1489534
255	0xbf029d76	-0.51021516

fc3.bias f4 [2]
0	0x3e41f639	0.18941583
1	0x3ea02567	0.31278536
