checkpoint_critic.pth (torch_old, 81375 bytes, 5 tensors)

fcs1.weight f4 [128, 24]
0.92325836 1.140826 -0.10938686 -0.06542531 -0.27530792 -0.6728996 -0.0377298 -0.14385287
0.43885246 0.58111084 -0.15960947 -0.20442969 0.13298123 -0.5876081 -0.15885141 -0.26971474
0.62795687 0.7161868 0.024145842 -0.045367483 0.00475109 -0.54997283 0.01101625 -0.04517972
0.19873483 0.2923519 0.052987386 0.15538941 0.09595068 -0.3810295 -0.0978106 0.08471756
0.564808 0.38097197 0.004128867 0.07425452 -0.17800279 -0.5927468 -0.026398191 0.027683565
0.5205774 0.510565 0.001521283 0.19034176 -0.66218805 -0.6418464 -0.01935303 0.096223906
-0.041627895 0.08155748 -0.07612015 -0.04305041 -0.5563814 0.60270774 0.08085635 -0.06467026
0.18123652 0.045610987 0.052127533 -0.037123244 -0.40891552 -0.24364445 -0.07739551 0.093365274
0.30031264 -0.058348123 -0.061753657 0.0038357857 0.006276451 -0.9878524 0.028604904 -0.020099556
-0.025875002 0.06404991 -0.03793285 0.03673382 0.5690429 0.4637332 0.039932504 -0.032324456
-0.027055914 -0.044393934 0.012303284 -0.035020296 -0.06775811 0.7006887 -0.012879894 0.035862092
0.022287827 0.040068004 0.009217389 0.0021275359 -0.6880413 -1.2133135 -0.012312772 0.011272771
-0.09609183 0.51159126 -0.020849293 0.13525629 -0.22950101 -0.7889569 0.02947163 0.0054722046
-0.11173248 0.3684918 -0.0019666026 0.0064565465 -0.07852738 -0.69604677 -0.044067357 0.11421609
-0.0065903226 0.26733217 -0.0038188626 -0.0045185466 0.3643532 -2.1093519 -0.044518724 -0.016642299
0.004615817 0.009312893 -0.023040762 -0.060132686 -0.726645 0.74622273 0.016875343 0.06175838
-0.036780268 0.04341732 -0.026513616 0.06753409 0.12282184 -0.03518728 0.023991635 -0.055618927
-0.011601739 -0.026376914 0.046873543 0.044247035 0.80477947 -0.80917674 -0.049842235 -0.039924745
0.010335614 0.119482875 -0.0035040572 0.21623579 -0.11886675 -1.2509164 -0.013927955 0.2533364
0.10119476 0.02715566 -0.05581765 0.032387678 0.067309156 -1.4533138 0.031755872 0.19784074
0.20439202 0.08942001 -0.040658083 0.18085389 0.30523813 -0.85152996 -0.00643795 0.070495404
0.11560758 0.3314235 -0.016743472 0.5186392 -0.3175583 -0.7994819 0.06157629 0.47424614
0.30088925 -0.050749756 -0.110402375 -0.45558047 0.02739515 -0.74171627 -0.036231484 -0.4744545
0.47416088 -0.17406937 -0.10427506 0.0046640704 0.08511425 -1.5259771 -0.031484082 -0.07081913
0.11782744 -0.37243313 -0.045545712 -0.09908626 0.5314751 -0.53169954 -0.05024932 -0.11614707
0.30669782 -0.20329219 -0.038722057 -0.10966525 0.26896578 -1.4130828 0.101260446 -0.013279742
0.14672989 -0.63923365 -0.05339535 0.15924653 -0.5111469 -1.7228855 -0.036084805 0.20627037
0.06379243 1.018782 0.043831494 -0.00088067056 -0.084402405 -0.6394128 -0.060768433 -0.08286578
0.02773692 1.1414803 -0.047003236 0.05909569 -0.07355943 -1.0521091 -0.008891459 0.14316115
-0.054353204 1.5518538 -0.05604888 0.02657755 -0.11020679 -2.93485 0.0401125 0.0918047
0.42550665 -0.3342506 0.0025209815 0.19461659 0.32876912 -0.23110726 0.061328307 0.12921685
0.4352618 -0.2542928 -0.066850364 -0.10644788 -0.07817349 -0.6922622 -0.10964039 -0.0011174764
00000000: a95a 6c3f 9606 923f 3806 e0bd b4fd 85bd
00000010: 29f5 8cbe 2643 2cbf 908a 1abd 2b4e 13be
00000020: 45b1 e03e aec3 143f aa70 23be 0456 51be
00000030: 3b2c 083e 7c6d 16bf f2a9 22be 0d18 8abe
00000040: c8c1 203f 0558 373f 80cd c53c 41d3 39bd
00000050: 08af 9b3b 05cb 0cbf 807d 343c 5f0e 39bd
00000060: 2581 4b3e 26af 953e 4d09 593d 671e 1f3e
00000070: ca81 c43d 4c16 c3be ed50 c8bd 6680 ad3d
00000080: 4297 103f c20e c33e 724b 873b c112 983d
00000090: 5d46 36be 41be 17bf 0541 d8bc a5c8 e23c
000000a0: 8f44 053f 63b4 023f c965 c73a f3e8 423e
000000b0: 2885 29bf 0c50 24bf 3f8a 9ebc 0a11 c53d
000000c0: 0382 2abd 9c07 a73d e2e4 9bbd a055 30bd
000000d0: 036f 0ebf 0e4b 1a3f 0498 a53d d771 84bd
000000e0: 1196 393e 96d2 3a3d ae83 553d 8b0e 18bd
000000f0: 605d d1be ee7d 79be 8a81 9ebd 4b36 bf3d
00000100: 94c2 993e 71fe 6ebd 67f1 7cbd ce61 7b3b
00000110: b0aa cd3b e5e3 7cbf d554 ea3c d3a7 a4bc
00000120: d0f7 d3bc 992c 833d 7a5f 1bbd 3476 163d
00000130: ccac 113f 706e ed3e 4490 233d a666 04bd
00000140: 5da4 ddbc 6ad6 35bd b793 493c 7171 0fbd
00000150: c4c4 8abd 5660 333f 3106 53bc 21e4 123d
00000160: f694 b63c 591e 243d 8804 173c 216e 0b3b
00000170: 7a23 30bf db4d 9bbf 82bb 49bc 6eb1 383c
00000180: cbcb c4bd a5f7 023f 23cc aabc a080 0a3e
00000190: 5002 6bbe 14f9 49bf 7d6e f13c 2e50 b33b
000001a0: 00d4 e4bd f5aa bc3e 1ee2 00bb 7091 d33b
000001b0: f7d2 a0bd 1f30 32bf f97f 34bd 20ea e93d
000001c0: a2f3 d7bb c3df 883e e245 7abb 5110 94bb
000001d0: 818c ba3e 9fff 06c0 4459 36bd 6e55 88bc
000001e0: 4840 973b 1b95 183c fbbf bcbc b14d 76bd
000001f0: 6805 3abf 7408 3f3f 293e 8a3c 5bf6 7c3d
00000200: e8a6 16bd 5cd6 313d 1533 d9bc 504f 8a3d
00000210: 048a fb3d 8a20 10bd 1b8a c43c acd0 63bd
00000220: 3815 3ebc 6614 d8bc 79fe 3f3d 613c 353d
00000230: 0706 4e3f 3526 4fbf 5f27 4cbd 2188 23bd
00000240: b556 293c 70b3 f43d 53a4 65bb ea6c 5d3e
00000250: 6970 f3bd 071e a0bf 1432 64bc 4fb5 813e
00000260: 333f cf3d 8c75 de3c 0ca1 64bd f1a8 043d
00000270: 62d9 893d 3006 babf 7212 023d c396 4a3e
00000280: 244c 513e d721 b73d 1789 26bd c331 393e
00000290: 2c48 9c3e defd 59bf 70f5 d2bb e55f 903d
000002a0: abc3 ec3d 57b0 a93e 9b29 89bc 8ac5 043f
000002b0: 0097 a2be d9aa 4cbf 6b37 7c3d 64d0 f23e
000002c0: 280e 9a3e fade 4fbd a41a e2bd d841 e9be
000002d0: cb6b e03c 1ee1 3dbf 7767 14bd b3eb f2be
000002e0: 37c5 f23e 3e3f 32be 2a8e d5bd 0fd5 983b
000002f0: 6150 ae3d 3853 c3bf 74f5 00bd 9f09 91bd
00000300: 834f f13d 8eaf bebe 248e 3abd bded cabd
00000310: c10e 083f 761d 08bf 3bd2 4dbd 84de edbd
00000320: 7f07 9d3e d42b 50be 059b 1ebd 2d98 e0bd
00000330: e2b5 893e e6df b4bf a361 cf3d 4693 59bc
00000340: 5c40 163e d1a4 23bf 15b5 5abd 8611 233e
00000350: 86da 02bf 8387 dcbf a9cd 13bd 8a38 533e
00000360: 9ba5 823d 7367 823f a788 333d cddc 66ba
00000370: 2bdb acbd 8fb0 23bf 52e8 78bd 89b5 a9bd
00000380: 8a38 e33c 071c 923f 7786 40bd 520e 723d
00000390: 54a6 96bd 83ab 86bf 7bad 11bc d698 123e
000003a0: 77a1 5ebd 25a3 c63f 8393 65bd 2ab9 d93c
000003b0: 19b4 e1bd 95d4 3bc0 014d 243d 1a04 bc3d
000003c0: 02dc d93e e522 abbe 0d37 253b 9249 473e
000003d0: 6d54 a83e 62a7 6cbe 6433 7b3d 6c51 043e
000003e0: a2da de3e aa32 82be d8e8 88bd 5901 dabd
000003f0: 6c19 a0bd 1838 31bf 248b e0bd 4978 92ba

fcs1.bias f4 [128]
-0.59278494 -1.4889092 0.15654369 0.9619327 -0.29503122 -0.46190152 -0.41985428 0.25957555
0.28380203 -0.5533113 -0.83320946 -0.82469416 0.04172691 -0.41355374 -0.7863929 -0.04230849
-0.57474166 -1.0038269 -0.3478707 -0.9622983 -0.28697586 -0.7853904 -1.4550632 -0.23269705
-0.16237324 -1.1034269 0.4229248 -0.48402393 -0.79219306 -0.4328709 0.31259516 -0.38792217
-0.8956064 0.29409346 -0.33517894 0.99600506 -0.3147313 -0.5389819 1.0263177 -0.3187021
-0.7569773 -0.727502 0.012320358 -0.34186763 -0.77509797 -1.4357319 -0.51459014 -0.73731995
-0.17335124 -0.8085102 -0.48216903 0.38775814 -0.550746 -0.03213153 -0.6598742 -0.89166236
0.67216194 0.15603738 0.49530265 0.23786397 -0.34932128 -0.79427886 -0.21688709 0.33407417
0.0018732386 0.22516233 0.6741058 -0.54367155 -1.9239334 -0.6962292 -0.56113577 -0.45186567
-0.52511233 0.64023405 -1.3361782 -0.22037758 -0.7957641 -0.40317786 -1.6031905 -1.6570814
-0.5943647 -0.09898543 -0.4286946 -1.1841999 -0.2200697 -1.2071236 -0.40302563 -0.89320326
-0.89347404 -0.7674089 -0.20395978 -0.48462287 0.47149697 -1.153756 0.3730013 -0.5485815
-0.03585267 0.5788916 0.7597001 -0.5108341 -1.3603404 -0.0733692 0.38702095 -0.925217
-1.0736709 0.64380157 -0.26584342 -0.6993996 -1.5501337 -1.6179435 -0.97752404 -0.3736178
-0.29986194 -0.42945895 -0.6338086 -1.6881831 -0.73843163 -0.39975595 -0.39672977 -0.10383855
0.42403668 -1.2371936 0.11841924 -0.5012415 -0.53864056 -0.17832123 -0.34869167 -1.0949425
00000000: c1c0 17bf 9494 bebf fd4c 203e 3941 763f
00000010: 550e 97be 5b7e ecbe 24f7 d6be 16e7 843e
00000020: 804e 913e cfa5 0dbf 374d 55bf 281f 53bf
00000030: d6e9 2a3d 51bd d3be 0c51 49bf ab4b 2dbd
00000040: 4522 13bf 667d 80bf 1c1c b2be 2e59 76bf
00000050: 80ee 92be 580f 49bf 833f babf 2348 6ebe
00000060: 2c45 26be 183d 8dbf 9989 d83e fcd1 f7be
00000070: 2acd 4abf 41a1 ddbe 790c a03e bc9d c6be
00000080: 7646 65bf 6b93 963e 939c abbe 30fa 7e3f
00000090: 7624 a1be b8fa 09bf 615e 833f ec2c a3be
000000a0: 44c9 41bf 923d 3abf 54db 493c 4609 afbe
000000b0: d26c 46bf 10c6 b7bf 2ebc 03bf 00c1 3cbf
000000c0: fd82 31be 86fa 4ebf dcde f6be 3c88 c63e
000000d0: b1fd 0cbf 5a9c 03bd 84ed 28bf fc43 64bf
000000e0: ce12 2c3f 43c8 1f3e 4f98 fd3e 9d92 733e
000000f0: 3dda b2be dc55 4bbf a617 5ebe c50b ab3e
00000100: 7587 f53a f490 663e 3392 2c3f 0f2e 0bbf
00000110: 7343 f6bf 143c 32bf 98a6 0fbf f05a e7be
00000120: c36d 06bf 61e6 233f e307 abbf a9aa 61be
00000130: 32b7 4bbf 546d cebe 5935 cdbf 3e1b d4bf
00000140: 4928 18bf e0b8 cabd dc7d dbbe dd93 97bf
00000150: f459 61be 0783 9abf 6059 cebe f8a8 64bf
00000160: b7ba 64bf e974 44bf d5da 50be 7d20 f8be
00000170: 0d68 f13e 47ae 93bf 07fa be3e d66f 0cbf
00000180: 40da 12bd 3d32 143f b57b 423f 06c6 02bf
00000190: a21f aebf 9742 96bd 9c27 c63e 05db 6cbf
000001a0: 0c6e 89bf 2ed0 243f a11c 88be da0b 33bf
000001b0: c86a c6bf c618 cfbf 043f 7abf d54a bfbe
000001c0: 8187 99be 0be2 dbbe 4841 22bf 6216 d8bf
000001d0: db09 3dbf d0ac ccbe 2a20 cbbe 4ea9 d4bd
000001e0: 561b d93e 5c5c 9ebf c985 f23d 5d51 00bf
000001f0: 59e4 09bf d799 36be b787 b2be 1327 8cbf

fc2.weight f4 [128, 130]
-0.18397093 -0.43178868 -0.12959775 -0.0616912 0.23788662 -0.062070526 -0.2510608 0.025598725
-0.113471106 -0.0887682 -0.25053 0.002032524 -0.020440556 -0.062586606 0.11688877 -0.4850218
0.025416268 -0.1548909 0.10509056 -0.014231507 -0.083829984 -0.30941 0.25071523 -0.29051092
-0.0013971849 -0.03070068 -0.4356633 0.08611684 0.052653935 -0.13611959 -0.30223945 -0.1462251
-0.59064364 -0.5765292 -0.1473558 -0.04542817 -0.040504094 -0.17855604 -0.5790677 -0.34458706
-0.061065596 0.073383264 -0.123581864 0.19328079 -0.37010178 -0.17400037 0.3010666 0.24710211
0.08126696 -0.23480034 -0.10526052 -0.1408359 -0.22097301 -0.13397832 -0.27872118 -0.06442671
-0.010434835 0.06572001 0.13883536 -0.1384741 0.02155827 -0.31062374 -0.09994634 -0.15910403
-0.13565361 0.0048641562 0.08949515 -0.2646789 -0.25965777 -0.041384272 -0.40956992 0.031900488
-0.0059686364 -0.07068415 -0.10168779 -0.28134784 -0.887515 -0.11249559 -1.3611358 -0.49264807
-0.13778031 0.2300527 -0.1908977 -0.89667654 0.019882668 -0.13332784 -0.47111952 -0.08095496
0.19210076 -0.023291111 -0.0029563233 -0.069765225 -0.20401323 -0.83907986 -0.04020225 -0.29330787
-0.05663484 -0.061646603 -0.04159599 -0.32750228 -0.4060284 -0.12521252 0.2649062 -0.042697415
-0.2524726 0.022895858 0.14931606 0.12114539 -0.052074134 -0.02598836 -1.1804625 -0.21148334
0.039701402 -0.06793607 -0.056230206 -0.61957014 -0.29607806 -0.4663308 -0.024821505 -0.068776414
0.13394429 -0.0023295926 -1.0989069 -0.47969648 0.04463342 -1.0394298 -0.042440336 -0.30559957
-1.3191248 0.08610572 0.03712169 -0.02654105 -0.034496758 -0.053286627 -0.051491644 -0.106492564
0.039578807 -0.024726612 -0.04782411 -0.00362657 -0.06693706 -0.034649014 -0.035811722 0.043749247
0.013350775 0.02601327 0.02470748 0.033526532 -0.07095151 -0.087323666 0.0058348947 0.012555371
0.028064271 0.009597266 -0.076258495 -0.038337134 -0.026074272 -0.08541287 0.013024167 -0.085901536
0.004982857 0.032844376 -0.086072326 0.014118762 -0.055665042 0.006308264 0.034990415 0.011134508
-0.096658945 -0.0047643366 -0.04080674 -0.14381453 0.034494326 -0.08552175 -0.022249658 -0.045760173
-0.10381564 -0.0011105806 -0.036292512 -0.04583763 -0.008907711 -0.13803883 -0.116483904 -0.0034236857
-0.047272008 0.02600541 -0.032640833 -0.0147205135 -0.068312936 -0.010976704 0.023295017 -0.06630774
-0.019827276 -0.10617448 -0.060436975 -0.056809075 -0.04327473 -0.06715998 -0.100056276 0.035881054
-0.12376159 -0.057780743 -0.016776497 -0.043373726 0.02273885 -0.22707216 -0.08188357 -0.09202713
0.031227935 -0.044505946 0.032309446 -0.09148447 0.026434448 -0.07366787 0.006172286 0.01486692
-0.08549728 -0.061020546 -0.0583915 -0.07405305 -0.051027227 -0.020316461 -0.010211653 -0.08255726
-0.12843382 -0.009977102 -0.08825057 -0.07871929 -0.07823496 0.02713356 -0.09846991 0.015966168
-0.042418204 0.0151949385 0.04424654 -0.06428101 -0.03032936 -0.1117332 -0.017947445 -0.08462596
-0.077887215 0.003283002 0.01379844 -0.12699649 -0.07967357 -0.09172438 -0.0091038225 -0.102135435
0.005060977 -0.07645546 -0.08987431 -0.102076516 -0.009690105 0.00591211 -0.07553284 -0.048879866
00000000: e062 3cbe 6813 ddbe 46b5 04be e9af 7cbd
00000010: 8d98 733e aa3d 7ebd 0b8b 80be 6bb4 d13c
00000020: 8a63 e8bd 1acc b5bd 7845 80be 1834 053b
00000030: f472 a7bc 682d 80bd 6163 ef3d c754 f8be
00000040: c735 d03c b89b 1ebe b839 d73d 442b 69bc
00000050: 0eaf abbd fd6a 9ebe bf5d 803e d9bd 94be
00000060: bf21 b7ba fe7f fbbc 430f dfbe 075e b03d
00000070: a7ab 573d ef62 0bbe 21bf 9abe 08bc 15be
00000080: 6c34 17bf 6b97 13bf 70e4 16be e412 3abd
00000090: 9fe7 25bd 65d7 36be c83d 14bf b76d b0be
000000a0: eb1f 7abd f749 963d 7d18 fdbd 66eb 453e
000000b0: fb7d bdbe 272d 32be 6725 9a3e 5608 7d3e
000000c0: 4b6f a63d 806f 70be d492 d7bd 4937 10be
000000d0: c046 62be 9d31 09be 8bb4 8ebe 27f2 83bd
000000e0: dff6 2abc 3698 863d db2a 0e3e 28cc 0dbe
000000f0: f89a b03c 130a 9fbe abb0 ccbd 2bec 22be
00000100: c8e8 0abe 8063 9f3b 3c49 b73d fe83 87be
00000110: ddf1 84be 8e82 29bd 26b3 d1be 16aa 023d
00000120: 8d94 c3bb dac2 90bd b041 d0bd d30c 90be
00000130: 2f34 63bf 1664 e6bd b339 aebf 5e3c fcbe
00000140: 4816 0dbe ef92 6b3e b07a 43be 988c 65bf
00000150: fae0 a23c 1887 08be 9436 f1be b7cb a5bd
00000160: 10b6 443e 00cd bebc e0be 41bb 12e1 8ebd
00000170: d8e8 50be f0cd 56bf 1dab 24bd 732c 96be
00000180: eff9 67bd 2681 7cbd 8f60 2abd 61ae a7be
00000190: f4e2 cfbe b637 00be c9a1 873e 7ce3 2ebd
000001a0: 1744 81be 1890 bb3c 4fe6 183e 131b f83d
000001b0: b04b 55bd 8be5 d4bc 6519 97bf 178f 58be
000001c0: f09d 223d 1122 8bbd a551 66bd 269c 1ebf
000001d0: 8b97 97be e9c2 eebe 7856 cbbc a6da 8cbd
000001e0: b128 093e 14ac 18bb fba8 8cbf c79a f5be
000001f0: 88d1 363d 090c 85bf ebd5 2dbd 8c77 9cbe
00000200: 15d9 a8bf 3258 b03d ea0c 183d 9e6c d9bc
00000210: 794c 0dbd 1443 5abd e7e8 52bd c618 dabd
00000220: 631d 223d 778f cabc 37e3 43bd c0ab 6dbb
00000230: 4c16 89bd 20ec 0dbd 50af 12bd 6932 333d
00000240: 36bd 5a3c c819 d53c 5767 ca3c 1e53 093d
00000250: 064f 91bd c0d6 b2bd a532 bf3b 0bb5 4d3c
00000260: 0be7 e53c da3d 1d3c 6a2d 9cbd 6607 1dbd
00000270: b699 d5bc f1ec aebd 5163 553c 25ed afbd
00000280: 3c47 a33b d387 063d b046 b0bd 6152 673c
00000290: 0701 64bd 8eb5 ce3b 1c52 0f3d 836d 363c
000002a0: 20f5 c5bd 271e 9cbb f824 27bd 1e44 13be
000002b0: ec49 0d3d 0726 afbd ea44 b6bc 056f 3bbd
000002c0: 4b9d d4bd e790 91ba 75a7 14bd 3dc0 3bbd
000002d0: a6f1 11bc 0d5a 0dbe 1d8f eebd ea5f 60bb
000002e0: 4ba0 41bd 4c09 d53c 65b2 05bd 4f2e 71bc
000002f0: a7e7 8bbd a2d7 33bc 31d5 be3c 5acc 87bd
00000300: d06c a2bc 0172 d9bd c38c 77bd a2b0 68bd
00000310: d840 31bd 2c8b 89bd 4eea ccbd 03f8 123d
00000320: b776 fdbd 80ab 6cbd dd6e 89bc a6a8 31bd
00000330: d346 ba3c 9b85 68be 93b2 a7bd b878 bcbd
00000340: bad1 ff3c de4b 36bd e956 043d 365c bbbd
00000350: 0e8d d83c 2edf 96bd e340 ca3b 6294 733c
00000360: 3319 afbd aef0 79bd ed2b 6fbd 20a9 97bd
00000370: ed01 51bd b56e a6bc c74e 27bc c813 a9bd
00000380: 2884 03be 0077 23bc b7bc b4bd 9437 a1bd
00000390: a739 a0bd 3347 de3c 98aa c9bd 7bcb 823c
000003a0: b6be 2dbd 31f4 783c dc3b 353d c3a5 83bd
000003b0: 4775 f8bc 60d4 e4bd 8506 93bc 6050 adbd
000003c0: 5583 9fbd a227 573b da12 623c 5e0b 02be
000003d0: e62b a3bd fed9 bbbd 3328 15bc 622c d1bd
000003e0: 8dd6 a53b ae94 9cbd 0610 b8bd 7e0d d1bd
000003f0: 3fc3 1ebc 60ba c13b f6b0 9abd 4136 48bd

fc2.bias f4 [128]
-0.1620123 -0.15180953 -0.27715376 0.09458368 0.015529568 -0.029267853 -0.036192574 -0.2071235
0.15341437 -0.1235353 -0.4003469 -0.12536387 -0.017425053 -0.09211423 0.47610423 -0.06980382
-0.13952048 -0.1792461 -0.013918509 -0.09186229 -0.1690201 -0.18307029 0.09039262 -0.114613205
-0.13784888 -0.016494483 -0.15962292 -0.12031548 -0.0077094003 -0.08961965 -0.1742454 -0.1775906
0.007344443 0.032705 -0.38661724 -0.044719238 -0.004210425 -0.00089158514 -0.18160675 -0.13470316
0.35925084 -0.1613877 -0.17731349 0.36212128 -0.12610748 -0.10163217 -0.053014487 -0.10084996
0.45953178 -0.2548092 0.007690649 -0.043409433 -0.08583491 -0.09366848 -0.14515151 -0.068912
-0.1618116 -0.3065371 -0.076500535 -0.057240844 -0.16444114 -0.029743362 -0.09359542 -0.13086838
-0.07019811 -0.10503917 -0.16462855 0.29313982 0.15663922 -0.039349437 -0.2720043 -0.032093037
0.31280535 1.0694568 -0.13306454 -0.13120593 -0.14472772 -0.013080188 0.014489434 0.45310873
-0.1727725 0.027146904 -0.10296726 -0.07047814 -0.111197345 -0.054568823 -0.02562592 0.03609306
-0.08854588 0.016253116 -0.06252953 -0.026621606 -0.09863267 -0.11137115 -0.17736791 -0.13443899
0.10271657 -0.31450748 -0.08321067 -0.107899904 -0.13423997 0.24461533 -0.03222233 0.5097144
0.480745 0.35760882 -0.20507856 0.12029646 -0.28214097 0.02074099 -0.112530656 -0.16810082
-0.17686002 -0.19746344 -0.16098858 -0.07447376 -0.0235219 -0.1829071 -0.07569995 -0.16221996
-0.12418019 -0.12745853 -0.10086989 -0.2638702 -0.12586157 -0.10664865 -0.20071223 -0.11516474
00000000: 8de6 25be f573 1bbe 19e7 8dbe 17b5 c13d
00000010: bb6f 7e3c 23c3 efbc aa3e 14bd 2f18 54be
00000020: a818 1d3e 1300 fdbd 45fa ccbe 635f 00be
00000030: fcbe 8ebc 63a6 bcbd efc3 f33e 4ef5 8ebd
00000040: 75de 0ebe 4a8c 37be 750a 64bc 4c22 bcbd
00000050: 9b13 2dbe c776 3bbe c41f b93d 54ba eabd
00000060: 4228 0dbe 701f 87bc 3174 23be f667 f6bd
00000070: 239f fcbb 828a b7bd 636d 32be 4fda 35be
00000080: a7a9 f03b aef5 053d b2f2 c5be 852b 37bd
00000090: 9bf7 89bb 44b9 69ba 1ff7 39be a0ef 09be
000000a0: baef b73e d142 25be ab91 35be f667 b93e
000000b0: 5222 01be 8724 d0bd b825 59bd 6d8a cebd
000000c0: c047 eb3e 5a76 82be d701 fc3b 17ce 31bd
000000d0: 37ca afbd 43d5 bfbd 99a2 14be bc21 8dbd
000000e0: f1b1 25be 6ef2 9cbe 50ac 9cbd 6075 6abd
000000f0: 4263 28be 5aa8 f3bc f5ae bfbd 5c02 06be
00000100: 07c4 8fbd c71e d7bd 6394 28be 6c16 963e
00000110: 0866 203e e02c 21bd 2644 8bbe fd73 03bd
00000120: 0628 a03e f6e3 883f 1242 08be d95a 06be
00000130: 8133 14be 494e 56bc 1765 6d3c defd e73e
00000140: 46eb 30be 2f63 de3c 80e0 d2bd d856 90bd
00000150: 6fbb e3bd 8f83 5fbd 73ed d1bc 51d6 133d
00000160: 8b57 b5bd 4125 853c 7b0f 80bd 8e15 dabc
00000170: edff c9bd 8f16 e4bd ef9f 35be 60aa 09be
00000180: 115d d23d 2007 a1be 5b6a aabd a0fa dcbd
00000190: 3476 09be 717c 7a3e 90fb 03bd a57c 023f
000001a0: 3524 f63e 8118 b73e 1d00 52be fe5d f63d
000001b0: c874 90be 02e9 a93c 7976 e6bd 9f22 2cbe
000001c0: cb1a 35be db33 4abe 31da 24be b385 98bd
000001d0: 00b1 c0bc 004c 3bbe 9308 9bbd fd1c 26be
000001e0: 2f52 febd 7d84 02be df94 cebd ff19 87be
000001f0: dbe1 00be 9b6a dabd 8287 4dbe 7edb ebbd

fc4.weight f4 [1, 128]
0.03468552 -0.019168887 -0.018620754 -0.054050386 -0.04534029 0.009836093 -0.06597969 0.043814592
0.040155083 0.0018258851 0.01959335 -0.0042285062 0.01169767 -0.015207568 -0.04562144 -0.022038216
0.025849199 -0.023617968 0.003891187 -0.0335626 -0.01766824 0.02620331 0.021309486 -0.00018597278
-0.024709094 -0.025503282 -0.0072701816 -0.0078032147 0.03950616 -0.02146927 0.005802182 -0.08998224
0.015817782 0.027167378 -0.03544529 -0.0092643555 -0.020051934 0.004288086 0.00504967 -0.0074197273
0.014131125 0.019558795 0.022875505 0.017239656 0.053866737 -0.0213312 0.021996329 -0.006541431
-0.041712437 0.029755456 0.024314601 -0.021367233 -0.0059911585 0.0059675868 -0.030435592 0.09376055
-0.024533108 0.004105873 0.025813619 0.011170617 -1.8124163e-05 0.017158937 -0.00243265 -0.0061476515
0.013608395 0.02196117 0.0069768094 -0.025243228 -0.027371919 0.025466878 0.010548519 -0.0013250241
0.017055716 -0.023448035 0.019725604 -0.024892438 0.0100115 0.010778821 -0.018853592 -0.020515103
0.0040681553 0.047287073 0.019822428 -0.07760604 -0.01458514 0.011981396 0.018967895 -0.024164349
-0.0077956123 0.009408956 -0.021756241 -0.018839478 -0.02663199 0.002189864 0.010368969 0.011066737
-0.0164918 0.02676538 -0.041292794 -0.026734374 0.009812544 0.017162103 -0.01915896 -0.017239118
-0.024185127 0.025341608 -0.0010840828 -0.061079346 -0.024296165 -0.028550332 -0.008600624 0.0016751544
-0.029035453 0.018171191 0.024818804 0.017835643 0.005539243 0.015435892 -0.00010611477 -0.010982244
-0.00896262 0.0040749237 -0.015824402 0.0019839024 -0.003508412 -0.034636315 0.05732048 -0.04919534
00000000: 6712 0e3d 1208 9dbc 8d8a 98bc f063 5dbd
00000010: bdb6 39bd 9027 213c 5c20 87bd ee76 333d
00000020: a879 243d 8a52 ef3a 3c82 a03c 488f 8abb
00000030: 96a7 3f3c 2a29 79bc 8cdd 3abd 7d89 b4bc
00000040: b3c1 d33c 787a c1bc 4903 7f3b f078 09bd
00000050: fcbc 90bc 53a8 d63c 3b91 ae3c b001 43b9
00000060: ba6a cabc 42ec d0bc b43a eebb 1cb2 ffbb
00000070: 36d1 213d 53e0 afbc 3b20 be3b 9c48 b8bd
00000080: 4b94 813c 1f8e de3c 152f 11bd 86c9 17bc
00000090: f443 a4bc 1383 8c3b b477 a53b 2f21 f3bb
000000a0: 3c86 673c c439 a03c 6965 bb3c 2e3a 8d3c
000000b0: 5ea3 5c3d c5be aebc a531 b43c 8059 d6bb
000000c0: a9da 2abd b7c1 f33c 6a2f c73c 560a afbc
000000d0: 7b51 c4bb bf8b c33b 1054 f9bc 8805 c03d
000000e0: a8f9 c8bc 8f8a 863b 1577 d33c f704 373c
000000f0: 5809 98b7 e690 8c3c 186d 1fbb 3d72 c9bb
00000100: bff5 5e3c e9e7 b33c b89d e43b e3ca cebc
00000110: 133b e0bc ea9f d03c b2d3 2c3c 6eac adba
00000120: 6eb8 8b3c 1816 c0bc 9797 a13c 3aeb cbbc
00000130: 4607 243c a799 303c d972 9abc 4a0f a8bc
00000140: 294e 853b 17b0 413d a562 a23c eaef 9ebd
00000150: 83f6 6ebc 9e4d 443c 8f62 9b3c 50f4 c5bc
00000160: 5672 ffbb 0628 1a3c 253a b2bc 4055 9abc
00000170: 552b dabc d283 0f3b 9ce2 293c 4251 353c
00000180: d019 87bc 1243 db3c a222 29bd 0c02 dbbc
00000190: cbc4 203c 8a97 8c3c 40f3 9cbc 0d39 8dbc
000001a0: e31f c6bc 3499 cf3c c817 8eba 562e 7abd
000001b0: c008 c7bc 63e2 e9bc a2e9 0cbc db90 db3a
000001c0: c2db edbc c0db 943c ce50 cb3c 0e1c 923c
000001d0: 8a82 b53b d3e6 7c3c ef89 deb8 dfee 33bc
000001e0: f4d7 12bc f086 853b 2da2 81bc 5c04 023b
000001f0: 63ed 65bb cfde 0dbd e1c8 6a3d 0e81 49bd
