checkpoint_actor.pth (torch_old, 80865 bytes, 6 tensors)

fc1.weight f4 [128, 24]
000000 a9 c8 86 3e f9 73 67 bf 6e e5 8c 3d db 73 3a be
       0.26324967 -0.90411335 0.06879698 -0.18208258
000010 00 f9 42 3f 76 b7 ba 3d 72 db 15 bd 5f e0 5e be
       0.76161194 0.09117024 -0.036586232 -0.21765278
000020 d7 33 7e 3e 5e e6 32 bf 73 16 b4 bd e4 cd 91 3b
       0.24824463 -0.6988276 -0.08793344 0.004449593
000030 fb b4 97 3e fe d8 f6 bd 50 a0 82 bd b2 e6 d3 bc
       0.29630265 -0.12053107 -0.063782334 -0.02586684
000040 be fb 3c 3e 87 16 f1 be 67 33 b7 bb e8 db 6a bd
       0.18455407 -0.470875 -0.0055908444 -0.057338625
000050 7b 22 83 3d 97 88 62 3e 4d d8 3f bd 89 f7 96 bd
       0.06403061 0.22122417 -0.04683714 -0.07371432
000060 ce e5 a7 3d ef df 3e 3d c0 e1 fb 3d 98 13 d4 3e
       0.08198129 0.04660028 0.12298918 0.414212
000070 13 0d 01 bf 55 bc 68 bf 10 d4 04 3c 02 98 99 3e
       -0.50410575 -0.9091237 0.0081072 0.29998785
000080 3f 91 86 3e 83 ba ab 3c 87 b3 0d bd 5a c4 bc 3c
       0.2628269 0.02096296 -0.03459504 0.023042846
000090 a2 a8 99 be b9 8d 06 bf 3c dc 8c bd a0 83 30 bd
       -0.3001147 -0.5256 -0.06877944 -0.043094277
0000a0 25 6f 11 3e d7 65 82 3d b3 b1 f1 bd de b9 1c 3d
       0.14202555 0.06367081 -0.118014716 0.038263194
0000b0 b6 89 23 be f1 c1 3f 3d be 12 dd 3c 0c 74 8e bd
       -0.15970501 0.046815816 0.026986476 -0.06955728
0000c0 00 a2 05 be 69 07 56 3f b4 2b ed bc 89 d0 22 3d
       -0.1305008 0.83605057 -0.028951503 0.039749656
0000d0 2d 4f 76 3d 0d ad 6d 3e c9 c5 f2 3b b9 78 39 3d
       0.0601341 0.23210545 0.0074088317 0.045281146
0000e0 1c 5e 6a bc aa 56 41 3f db d1 a5 3c 8d ea 88 bd
       -0.014304664 0.75522864 0.020241668 -0.06685362
0000f0 a3 7a 2a be 74 e1 ed be 06 6a 16 bd 46 d0 4c bc
       -0.16648345 -0.4646107 -0.036722206 -0.012500828
000100 cd ba 0b be f1 3c 30 3f 5d 18 81 3c 7d 70 0c 3e
       -0.13645478 0.6884299 0.015758688 0.13714786
000110 5e 19 de be 23 8a be bf 36 02 8b bd 39 e8 1c 3d
       -0.4337873 -1.4885906 -0.06787531 0.038307402
000120 02 10 5b 3d b9 8c be be c6 d7 e7 3c 8b 74 e5 3c
       0.053482063 -0.37216738 0.028301131 0.028009674
000130 dd 96 50 bf 3b ac da be f3 ad 5a bd a8 62 2a 3c
       -0.814802 -0.42709526 -0.053388547 0.010399498
000140 fe 08 52 3e 52 c8 b1 be 5b f4 a4 3b ca 24 a3 3d
       0.20511243 -0.34723145 0.0050340123 0.07966001
000150 98 75 a0 be c3 d8 d4 bd 3e 5b 61 bd 0d 1e 29 3e
       -0.31339717 -0.103929065 -0.055018656 0.1651537
000160 2d 89 88 3e 84 20 a5 be e1 92 34 3d 16 d5 13 be
       0.26667157 -0.3225137 0.044085387 -0.14436755
000170 5b 07 33 3e cf bf e1 3e 75 0e 64 bd 18 4c 36 be
       0.17483275 0.4409165 -0.05567785 -0.17802465
000180 27 0d b5 3e f4 3f 81 bd dd b9 20 bd b7 e0 1c be
       0.35361597 -0.06311026 -0.039239753 -0.15320097
000190 aa 69 c1 be 21 fc 45 bf 3b 44 5e 3d 7c 47 9a bd
       -0.37775928 -0.77337843 0.05426429 -0.07533166
0001a0 1a 7c 8b 3e 08 84 c2 bd 09 33 0a 3d 27 54 fd 3e
       0.2724312 -0.09497839 0.033740077 0.49478266
0001b0 1c 54 db bc 5a b5 89 be c2 d1 79 3d b7 9b df 3e
       -0.026773505 -0.26896173 0.060991056 0.43673488
0001c0 c2 d6 f8 3e 31 5a d2 bd d7 b0 2b bd ab b4 01 be
       0.48601347 -0.10271109 -0.041916694 -0.12666576
0001d0 6d fc d2 3c 05 07 01 ba 43 b9 cc 3b d9 0a 0f 3c
       0.025755132 -0.00049220055 0.006247671 0.008730614
0001e0 75 7e 2c 3f ae 83 96 3e 4a f9 95 bd 56 60 2c 3e
       0.6738046 0.2939734 -0.07322939 0.16833624
0001f0 bf 6b ab 3e 9d fb 50 3e 0d de c0 bd fa b8 07 3e
       0.3348064 0.20408483 -0.09417353 0.13254157
000200 40 47 21 3f 11 56 c8 3e d8 80 4d 3c 2b 45 34 3e
       0.62999344 0.39128163 0.012542926 0.1760451
000210 2f b0 24 3e 3c 3c 11 3e 4a ee 86 bd 6d 52 14 3e
       0.16082834 0.14183134 -0.06588419 0.14484568
000220 02 06 bc 3e 43 33 b9 3e fa 60 f4 bc ac 93 5c 3e
       0.36723334 0.36171922 -0.029831398 0.21540707
000230 20 e1 0a be 9a 71 a6 bd f6 cb c2 bd 8e 01 5b 3e
       -0.13562441 -0.081271365 -0.09511559 0.21387312
000240 30 80 2b 3e b2 33 9e be 51 f4 42 bd 4f f6 fd 3a
       0.16748118 -0.30898815 -0.04759628 0.0019375774
000250 74 0c 23 3f ed 44 0d 3f 57 2f 42 bd ae db 64 bd
       0.63690877 0.551833 -0.047408428 -0.055873565
000260 9c d5 31 3f 80 fa f3 3d ac ab 30 3d f3 9f d5 3e
       0.6946657 0.119130135 0.04313247 0.41723594
000270 bd 38 c3 3e f1 ad 7e be 24 98 e1 bc 03 cd e6 3e
       0.38129225 -0.24871041 -0.027538367 0.45078287
000280 f9 e4 28 3f c1 24 5c bd c9 a4 1e 3d a0 a9 e2 bd
       0.65974385 -0.05374599 0.03873137 -0.1106751
000290 97 59 61 3e 5d 02 4e bd ba 73 00 bc 58 7a c3 bd
       0.22006832 -0.050295223 -0.007840091 -0.095448196
0002a0 be e1 b8 3e 05 ac 83 3d ae 30 bc bc 05 86 5a be
       0.36109728 0.064292945 -0.022972431 -0.21340187
0002b0 e4 8a 0c be f2 91 36 3d ff cc ef bd 55 9d 57 be
       -0.13724858 0.044572778 -0.11709022 -0.21056111
0002c0 01 4d f4 3e 47 10 94 bb 09 83 91 bc a2 26 cc bd
       0.47715 -0.004518542 -0.017762678 -0.09968306
0002d0 57 92 e9 bd 2d c1 44 bd 85 4f 21 bd 46 da 3b bb
       -0.11404865 -0.04803579 -0.039382476 -0.0028664037
0002e0 f6 8a c3 3e 6f 6f 26 3d 09 f4 8f bd 5b af 27 be
       0.38191956 0.040633615 -0.07028968 -0.16375487
0002f0 7c 88 7c be 65 2d 36 be 4e 92 76 3d 0a 7c a5 bc
       -0.2466144 -0.17790754 0.06019812 -0.020200748
000300 aa cf 11 3e 2b c7 d4 3e c1 85 24 3c b3 4a b0 bd
       0.14239374 0.41558203 0.010041655 -0.08607998
000310 60 05 3c 3d b2 98 65 3e 21 a3 63 bc 7e e2 53 bd
       0.045903563 0.2242153 -0.013893873 -0.05172967
000320 85 bd 8c 3e eb c0 d5 3e 76 c6 ed bc 00 c8 82 be
       0.27488342 0.41748747 -0.029025298 -0.25543213
000330 9d ff 18 3d 5e cd bf 3d 46 e0 c8 bd a9 8a b1 be
       0.037353147 0.093653426 -0.09808402 -0.34676102
000340 cc f0 46 3e 80 5f ac 3e 5e e8 84 bd cc 2e 8b be
       0.19427794 0.3366661 -0.06489633 -0.2718414
000350 81 5d 71 3e 46 8a fd bd f0 2a c4 3b 9d 0c 50 be
       0.23570825 -0.12379889 0.005986564 -0.20317312
000360 a4 62 30 be 9a 42 66 be 6d 1b 2f bd 74 ba f0 b9
       -0.17225128 -0.22486344 -0.042750765 -0.00045915286
000370 ef 73 e6 bd 3b 85 70 bf 55 a6 09 bd 7e 0b 36 bc
       -0.11252581 -0.93953294 -0.033605892 -0.011111138
000380 8f e4 14 bb fb 7e 59 be 46 8c 5d bd 65 f0 75 3e
       -0.002271924 -0.21239845 -0.054088853 0.24017484
000390 74 a8 76 3e 0d 2a 39 bf 1c 49 3c be d8 29 1f 3e
       0.24087697 -0.7232979 -0.18387264 0.15543306
0003a0 96 f4 f4 3d 05 2b c4 3d 31 ac 31 be fa 09 32 bd
       0.119607136 0.09578518 -0.17350842 -0.043466546
0003b0 ef a4 e0 3e b5 8f 3f bf fc a7 86 bd 22 2d ae bc
       0.43875834 -0.74828655 -0.06575009 -0.021261755
0003c0 64 63 48 3e fd d4 07 3d eb 32 3c bd d4 ea 0e 3e
       0.19569165 0.033162106 -0.045946997 0.13956767
0003d0 46 5b 13 3e 90 7f d3 3e 2b db 6d bd 1e c5 b1 3d
       0.14390287 0.4130826 -0.058070343 0.08680175
0003e0 1f e5 14 3e d4 fa 3a be 02 bb d8 bd 1a 89 ef bc
       0.14540528 -0.18259746 -0.10582544 -0.02924018
0003f0 cf 64 14 be cd 68 71 3e 37 9c 83 3c 81 21 03 be
       -0.1449158 0.23575135 0.0160657 -0.1280575

fc1.bias f4 [128]
000000 af bb 30 3e 1c 06 59 be 54 24 b1 be 58 65 c2 be
       0.17259096 -0.21193737 -0.3459803 -0.37967944
000010 8e 8c d7 be 4d 4c c3 be e4 dd ab be 36 51 03 bf
       -0.42099422 -0.3814415 -0.33567727 -0.51295793
000020 73 2a 61 be fa e8 87 3d 4d 24 47 be d2 4c c9 3d
       -0.2198885 0.06636234 -0.19447441 0.098291054
000030 c4 7b a6 be ba 9e 01 be cd c1 86 3c 60 bd e8 bd
       -0.325163 -0.12658206 0.016449833 -0.113642454
000040 40 12 89 be b6 08 1e be f6 85 d1 be 99 b9 4a be
       -0.26771736 -0.1543301 -0.40922517 -0.19797362
000050 fa 4e 21 be 23 2a bd be 91 8b ef be 01 d8 1b be
       -0.15752783 -0.3694621 -0.46786168 -0.15219118
000060 ac 68 90 be b9 11 55 3d 31 f3 ae be 6d 5e 8e be
       -0.28204858 0.052018855 -0.34169915 -0.27806416
000070 db 9a 64 be 5d 12 b9 3e 40 2e fb bd 01 b3 cb be
       -0.22324698 0.36146823 -0.12264681 -0.39785007
000080 56 56 8b be 75 e7 71 be 93 10 2a be 5d 3f 01 be
       -0.27214307 -0.2362345 -0.16607885 -0.12621827
000090 73 ef a0 bc 44 47 48 be 9b 83 19 be 54 ea b1 be
       -0.019645428 -0.19558436 -0.1499161 -0.3474909
0000a0 10 a4 50 3d 6d fb ec be e4 58 a8 be ed 3c 02 bd
       0.050937712 -0.46285573 -0.32880318 -0.031796385
0000b0 41 47 75 be d5 9f cf be 11 7d 2b 3e c5 71 0d 3d
       -0.23952962 -0.4055163 0.16746928 0.034532327
0000c0 0e e5 59 be 33 e6 9f be f4 6d 0d bd 3b 99 82 bd
       -0.21278784 -0.31230316 -0.034528688 -0.06376883
0000d0 46 9e a4 be 1f b9 1c 3d 35 37 fe bd 4a 33 6e be
       -0.32152003 0.038262483 -0.12412874 -0.23261753
0000e0 02 1b dc 3d e1 5b 31 be 62 16 d7 bb ff a9 e6 bc
       0.10747339 -0.17320205 -0.0065639475 -0.028157232
0000f0 47 82 41 3e ee 6f 0d be 52 78 eb bd 52 1d 0c be
       0.18897353 -0.13812229 -0.11497559 -0.1368306
000100 bf b3 9f be a9 75 09 3d f6 7d 7d bb 3b d7 8a be
       -0.31191823 0.033559475 -0.0038679815 -0.27117333
000110 c1 4d 9f bc d2 e3 36 3e d3 d2 5a be 31 f2 ac be
       -0.019446256 0.17860344 -0.21369486 -0.33778527
000120 50 e0 70 be 9c 8c e3 bc 9c 42 6b be 23 c8 46 be
       -0.23523068 -0.027777009 -0.22974628 -0.19412284
000130 b5 85 10 be 8c dd 2d be f4 3b 66 be cf 72 04 bf
       -0.14113505 -0.16979045 -0.22483808 -0.51737684
000140 77 87 89 be 64 68 51 be 0d 32 4e bd 8d d5 67 be
       -0.26861164 -0.20449978 -0.0503407 -0.22640057
000150 47 0c 36 be 4c f4 76 bd c1 27 b8 be 87 2c 86 be
       -0.17778121 -0.060291573 -0.3596783 -0.26205847
000160 84 df ed 3c 37 52 1c 3e 86 b8 07 be 0b fe ec be
       0.029037245 0.15265737 -0.13253984 -0.4628757
000170 45 7f 35 3d ba af 76 be 59 21 00 be 19 07 f0 be
       0.044310827 -0.24090472 -0.12512721 -0.46880415
000180 77 9a a3 be cb b9 f2 bc 2d 66 f7 bd 3b 47 97 be
       -0.31953785 -0.029629609 -0.12080035 -0.29546532
000190 42 6a 88 be 44 ff 87 3e e3 6d 88 be f1 0f fd be
       -0.26643568 0.2656194 -0.26646337 -0.49426225
0001a0 c8 d7 0c bf 7b 9d d7 be b8 4c 0e be 28 5c 70 bd
       -0.55016756 -0.42112336 -0.13896453 -0.058681637
0001b0 4c 9a 1e be c7 be 3a be 5d 3e 16 3d 84 36 3f be
       -0.15488547 -0.18236838 0.036680568 -0.1867314
0001c0 3b b4 5b bc 64 ac bb bc 41 23 c6 be ae 8d a6 be
       -0.0134096695 -0.02290935 -0.38698772 -0.32529968
0001d0 63 44 f8 be 34 50 13 3e f1 39 d4 be 33 4e 02 be
       -0.48489675 0.14386064 -0.41450456 -0.12725143
0001e0 ce ff 7d be 26 f1 0d bf db d8 7e bd 27 e0 c0 be
       -0.24804613 -0.5544609 -0.06221853 -0.37671015
0001f0 fa 3d 9f be 37 80 f2 bd 2a e5 aa be 73 bc b8 be
       -0.31101972 -0.11840861 -0.33377963 -0.36081275

fc2.weight f4 [128, 128]
000000 9f bc 9e be e6 a1 68 bc 82 a7 bc bd 6f 57 93 bc
       -0.3100328 -0.014198756 -0.09211637 -0.017986028
000010 b6 30 8d be c7 17 bc bd 0c de 23 3e 07 00 63 bc
       -0.27576226 -0.09184223 0.16002673 -0.013854987
000020 ac 54 0f be 77 ed 99 be df 87 06 be 5a 01 3a 3d
       -0.13997144 -0.30063984 -0.13137768 0.045411445
000030 54 11 ef bc d1 11 b6 3d 2d 15 6b 3e 9a 8f 21 3d
       -0.029183067 0.08890117 0.22957297 0.03944359
000040 0e 7a 00 3f 11 fa 21 3e 90 e8 2b 3e 32 04 22 3d
       0.5018624 0.15818049 0.16787934 0.039554782
000050 35 25 ca be d8 19 c6 bd 64 89 21 be 7c 7e 21 3e
       -0.39481512 -0.09672898 -0.15775067 0.15770906
000060 98 ca ff bc 75 7d dd bd 9f 35 5c 3e d3 00 68 3c
       -0.031224534 -0.10814945 0.2150483 0.014160353
000070 5d 89 91 3e 5f 88 07 be 17 ff 29 be 31 8e b2 be
       0.28425112 -0.13235615 -0.16601215 -0.34874108
000080 36 32 50 be 6c 47 4a be 71 d9 60 be f8 c0 e0 3b
       -0.20331654 -0.19753808 -0.21957947 0.006858941
000090 c5 8b 4d bd d0 b0 af 3d e2 c1 84 3e 12 b9 9f 3c
       -0.050182123 0.08578646 0.2592917 0.019497428
0000a0 d3 65 ec bd d7 f3 e4 be 79 a0 8a 3d 15 38 61 be
       -0.11542859 -0.44717285 0.06768889 -0.2199405
0000b0 5d 61 22 be 9b aa e6 bd 6f f7 40 3e bc e3 03 3e
       -0.15857454 -0.11263009 0.18844388 0.12879843
0000c0 60 b6 37 bd 79 14 96 3e 2a da c4 be 44 0f b9 bc
       -0.04485166 0.29312494 -0.38447696 -0.022590287
0000d0 6d 18 07 3e e2 2e 4e be b5 cb 2f 3e e4 d2 f5 bd
       0.13192911 -0.20135072 0.17167552 -0.12003115
0000e0 af d8 88 be 2b 56 2b be 12 2b 37 be cb 67 72 be
       -0.26727816 -0.16732089 -0.17887524 -0.23672406
0000f0 77 a2 34 be 87 5e b6 3e 93 02 c0 3e 40 de 90 3c
       -0.176401 0.35618994 0.37501964 0.017684102
000100 88 1c 40 bd 15 c8 f8 be 29 6e 40 3d 93 84 b5 be
       -0.04690221 -0.4859015 0.046980057 -0.3545271
000110 ba 22 0f bd d9 80 77 3c e9 11 b6 3c b2 96 e6 3e
       -0.034945227 0.015106403 0.022225337 0.45036846
000120 a3 3e 52 be 55 d3 f7 bb 73 3d 89 3d 4a 8d f3 be
       -0.20531707 -0.0075630345 0.06701174 -0.47568733
000130 19 1e 02 be 00 df 5d be 10 b8 d6 bd 8e c1 03 3f
       -0.12706794 -0.21667099 -0.10484326 0.51467216
000140 e8 fe 67 3d a3 28 96 bd 9c 87 87 3e 68 ec 4d 3e
       0.056639582 -0.073319696 0.2647065 0.20109713
000150 42 b9 97 bd c9 96 bf be 46 79 41 be a1 87 b7 bd
       -0.07408382 -0.37419727 -0.18893918 -0.08961416
000160 f1 d0 9d be f0 61 07 be 3b 08 a1 3d 3e 12 94 3d
       -0.30823472 -0.13220954 0.07862898 0.07230042
000170 b9 f3 8e 3c 02 f8 d4 bc b2 31 45 bd 2f 56 68 bc
       0.0174502 -0.025997166 -0.048143096 -0.014180704
000180 e2 fb 19 bd 53 7a 11 3d 34 f8 3d 3e 87 bf f5 bd
       -0.03759373 0.035517048 0.18551713 -0.119994216
000190 84 3c 59 be be 31 60 be 1c ba cb bd 8d 44 55 be
       -0.21214491 -0.21893975 -0.09947607 -0.20826931
0001a0 37 f8 f5 3c 87 c0 64 be 2f de 7d be cc 71 04 be
       0.030025585 -0.22339068 -0.24791788 -0.12934035
0001b0 82 6b 1f be cb 23 f2 bc 8c 87 2a 3e 07 c5 f7 bd
       -0.15568355 -0.029558083 0.1665327 -0.12098127
0001c0 ec 69 1c 3e 6e 36 00 3f 98 83 76 bc d9 32 8e be
       0.15274781 0.50083053 -0.015046023 -0.2777317
0001d0 6d dd b3 bd c3 61 e2 be e6 4b a6 bd 68 70 0d bd
       -0.08782468 -0.4421521 -0.08119945 -0.034531027
0001e0 b5 f2 af be 51 e8 af bd c6 55 6b 3e 42 6c d0 3d
       -0.34364858 -0.08589233 0.22981939 0.101768985
0001f0 ad 5d a0 bc eb fa 12 be 41 41 d4 3c 13 b1 c6 bc
       -0.019575918 -0.1435353 0.025910022 -0.024254357
000200 08 bf 13 3e a7 d1 07 be 3d 30 c2 be a3 4e d1 3e
       0.14428341 -0.1326357 -0.37927428 0.40880308
000210 0b 1f c7 bd a5 34 3a be dd c4 1e be 7a 36 dd 3d
       -0.09722718 -0.18184145 -0.15504785 0.10801406
000220 ac 38 9d 3d 65 48 3f be 2a 8c 14 3e 28 9f ca 3c
       0.07676825 -0.1867996 0.14506593 0.024734095
000230 a2 ce d1 bd 0a ba 0c be 1d ae 2d be 9a 35 0f be
       -0.1024449 -0.13742843 -0.1696095 -0.13985291
000240 1c d5 5b be 37 6e a3 be e5 9d e9 3d be 3d e9 3c
       -0.21468014 -0.31920025 0.11407069 0.028471824
000250 6e 1a 75 be 7b 9f 75 3c 8c 70 ec 3b e3 28 16 be
       -0.23935863 0.014991636 0.007215565 -0.14664035
000260 eb dc 25 bd 2e cd f3 3d 47 b5 04 3c 72 25 54 be
       -0.040493887 0.11904369 0.0080998605 -0.20717409
000270 e3 40 e8 bd a2 2b 10 bd 79 58 8b 3e bc 5a a7 bd
       -0.11340501 -0.03519786 0.27215937 -0.08171603
000280 99 bf 57 3c 0d f6 db bc 14 7d 4d 3d 2f b9 d8 bd
       0.013168239 -0.026850725 0.050168112 -0.10582196
000290 22 ef e9 3d 43 9a 81 3d 58 94 8b bd ef 06 db 3c
       0.11422564 0.06328251 -0.06815404 0.026736705
0002a0 49 a3 af be fb d0 4d be 2a 8d 14 be 90 17 f5 bc
       -0.34304264 -0.20099251 -0.14506975 -0.029918462
0002b0 63 d9 35 3d 64 5e 41 be 32 fb ed be a8 fe 29 3d
       0.04439677 -0.18883663 -0.4648071 0.041502625
0002c0 65 2e 17 bd 35 9b 4e bd 57 90 bc 3e 03 0a e0 bd
       -0.03690948 -0.050440986 0.36828873 -0.109394096
0002d0 da b7 0e be c6 f6 1a 3e b1 7a 36 be 50 95 94 bd
       -0.13937321 0.15133199 -0.1782024 -0.072550416
0002e0 0f fe 9e 3d 3f c1 ea 3d 0c ea ba bd 80 5e ee bd
       0.077633016 0.1146264 -0.09126672 -0.11639118
0002f0 fa 93 1a bd 71 01 06 be 3c ea 0d bd 9c d3 51 be
       -0.037738778 -0.13086487 -0.03464721 -0.20490879
000300 ba 17 65 3d 00 c1 b0 3b 09 db 38 bd e3 e7 44 3e
       0.05593083 0.005394101 -0.045130763 0.19229083
000310 19 6d 17 3d 52 41 89 be 8b 7d 54 be f8 82 d7 bd
       0.036969278 -0.26807648 -0.20751016 -0.10523027
000320 1b 67 83 be a2 de 4e bb 1e 52 9d be b1 ec 12 3e
       -0.256646 -0.0031565805 -0.30726713 0.14348103
000330 e1 7b 94 bd 12 62 0e 3d 81 b7 ea bc b1 f7 f4 bd
       -0.072501905 0.034761496 -0.028651955 -0.11961306
000340 e9 7d 71 bd d4 94 84 be 92 ae cc 3d 61 2c 63 be
       -0.058957968 -0.25894797 0.09994234 -0.22184898
000350 7c 14 a3 bd 08 63 4b be a0 5c 46 bd 78 a0 4c be
       -0.079628915 -0.19861996 -0.048428178 -0.19983089
000360 c7 da 6a be 86 10 75 3e cf 64 07 3d 84 97 4a be
       -0.2293502 0.23932084 0.033055123 -0.19784361
000370 f8 1c 3b be 2b dd 2e be c7 27 2b 3d 8f 6d 07 be
       -0.1827277 -0.17076556 0.04178598 -0.13225387
000380 03 05 92 ba 32 e5 ad bd 15 01 c8 bd d2 36 66 3d
       -0.001114041 -0.08490981 -0.097658314 0.056204624
000390 a3 bb 14 3e 9e 34 97 bd 38 a0 bb bd c7 d7 05 be
       0.14524703 -0.07383083 -0.09161419 -0.13070594
0003a0 36 2c 83 bd 5a 85 a3 3c ce 5a 58 be 77 9b 3d 3d
       -0.06404917 0.019961048 -0.21128389 0.04629084
0003b0 59 39 75 bc 2e 54 13 be 49 6f c5 3c 1f 48 96 bc
       -0.014967286 -0.14387581 0.024100916 -0.018344937
0003c0 8b 13 03 be da ff ee bd 4f 62 1e bd 9e 7d 82 be
       -0.12800424 -0.116698936 -0.038667973 -0.25486463
0003d0 f9 8d 01 be a1 99 2a 3f ae c1 02 3e 9a de f0 3c
       -0.12651815 0.6664067 0.12769195 0.02940302
0003e0 e0 d8 83 be c4 04 b2 bc 44 51 30 be ae 0c 3e bd
       -0.257514 -0.021730788 -0.172185 -0.04639881
0003f0 5f 78 05 3b 46 e0 d2 bc cb 4b 66 3d 9d 7c d1 bd
       0.0020365936 -0.025741708 0.056224626 -0.10228846

fc2.bias f4 [128]
000000 c8 04 8a be ae f0 12 3d b8 c2 30 3d 83 c4 50 3d
       -0.26956773 0.03587406 0.04315445 0.05096866
000010 3c b5 4e be 3a 6e 4e be a6 94 6c be 46 1c a3 bd
       -0.20186323 -0.20159236 -0.2310358 -0.07964377
000020 b1 80 c2 bd 0a d5 c0 3c 02 ad f0 bd 7d cd 85 bd
       -0.09497202 0.023539085 -0.117517486 -0.065333344
000030 1c 47 86 bc a3 69 9d bd e4 69 1e be c5 63 73 be
       -0.01639133 -0.07686164 -0.15470082 -0.23768528
000040 2b d7 f1 bc ec 59 cc be 6d ac 94 be a5 67 8c 3e
       -0.029521545 -0.39912355 -0.290378 0.27422825
000050 ad 52 c8 3e b4 00 f2 bd 87 0d 66 be 44 b0 91 be
       0.39125577 -0.1181654 -0.22466098 -0.28454792
000060 c7 61 2f be 85 d2 7c 3c 10 68 c5 bd b8 f4 35 3d
       -0.17127143 0.015431051 -0.09638989 0.044422835
000070 cd 24 18 be 46 33 9c bd e2 5a 89 be 92 4e 85 bd
       -0.14857788 -0.07626967 -0.2682715 -0.06509127
000080 39 ca 46 bd 79 a6 44 be 68 a2 31 be 50 e9 4d bd
       -0.0485327 -0.1920413 -0.1734711 -0.050271332
000090 74 87 30 be 71 42 3f be 96 65 32 be c8 57 62 be
       -0.17239171 -0.18677689 -0.17421564 -0.22103798
0000a0 c9 0e 25 be 5f b9 4b be d4 c2 b7 bd b7 af 89 3d
       -0.16118921 -0.19894932 -0.089727074 0.06722968
0000b0 52 f4 21 be 41 d8 2e be 6b f5 6d be da 31 e5 bc
       -0.15815857 -0.17074682 -0.23238151 -0.027977873
0000c0 95 16 94 bc 0c 5b 2a be 7e 64 70 be 08 5e ca bb
       -0.018077174 -0.16636294 -0.23475835 -0.00617576
0000d0 20 20 46 be e0 16 c6 39 46 a1 a9 be db a4 55 be
       -0.19348192 0.00037782546 -0.33130854 -0.20863669
0000e0 54 05 64 be 6c 43 21 be 15 c4 b3 3d 2b 0b 4c bd
       -0.22267658 -0.15748376 0.08777634 -0.049815338
0000f0 3a bb a2 3c e3 ef 84 bd 85 aa e0 bd 38 8c aa bd
       0.019864667 -0.06491067 -0.10970024 -0.08327526
000100 f0 c3 98 3d 8b 4c 3a 3d a8 3e ac bd a7 77 2a be
       0.07459247 0.045483153 -0.08410388 -0.16647206
000110 7c e8 02 3d 79 90 40 be 0f 4e d2 bd b3 3c db bd
       0.031959996 -0.18805112 -0.10268795 -0.10704937
000120 3b bb f6 bc 6d a2 ee bd 5b 61 29 be c5 c1 d4 bd
       -0.030118575 -0.11652074 -0.16541044 -0.10388521
000130 20 aa 04 be f9 e1 d8 bd 66 5a 62 be 1e 44 8f be
       -0.12955523 -0.10589976 -0.22104797 -0.27981657
000140 a8 f4 4c be 63 43 7a 3d 56 2c 24 3e d2 b4 30 be
       -0.20015204 0.06109942 0.16032538 -0.17256477
000150 82 6c 04 be fc ef d3 bd ef 50 c7 bc cd d2 2a 3d
       -0.12932017 -0.10348508 -0.024330584 0.04170494
000160 b9 61 b7 bc 14 55 1f 3d 3c 86 31 bd d4 38 33 3d
       -0.022385465 0.038899496 -0.043340907 0.043755367
000170 3c 10 bb be b5 b9 f9 bd 15 f8 88 be 58 12 21 bd
       -0.36535823 -0.12193624 -0.26751772 -0.039324135
000180 b2 c9 a3 3d 1a 14 c7 bd 1e 31 e8 3d cc 42 5c 3e
       0.07997455 -0.09720631 0.11337493 0.21509856
000190 30 d3 f2 be f2 df c0 bd 81 25 c1 bc 71 f6 21 be
       -0.47426748 -0.09417714 -0.023577454 -0.15816666
0001a0 3b 1f 00 be 63 62 7a be 8a 97 69 be 84 e9 c3 3e
       -0.12511913 -0.24451594 -0.22811714 0.38264096
0001b0 2e 7b 8e be c2 85 d3 bd 0e 06 28 be 89 83 9e bd
       -0.27828354 -0.10328247 -0.1640856 -0.07739932
0001c0 90 9f 3f bd a2 b0 9d be 87 ff 90 be fc 59 92 be
       -0.04678303 -0.30798823 -0.28319952 -0.28584278
0001d0 e8 99 da 3c 4d 10 b1 bd 92 ac 18 bf 81 7d a6 be
       0.026684716 -0.08645687 -0.5963832 -0.32517627
0001e0 d2 bb 1d be b2 ab 02 be 86 7b fe 3c 54 4c fa bd
       -0.15403679 -0.12760809 0.03106476 -0.1222159
0001f0 52 53 39 3d 59 0f c7 be 39 f5 27 be 44 9c 23 be
       0.045245476 -0.38878897 -0.16402139 -0.1597758

fc3.weight f4 [2, 128]
000000 91 3f 21 3e 96 f1 f7 3d ba 41 0c be a0 3a 1e be
       0.15746905 0.12106626 -0.13696948 -0.15452051
000010 1c 5c bc 3d 4c 84 98 3e 47 a6 83 bc da 03 ec 3d
       0.09197256 0.29788435 -0.016070498 0.11524172
000020 59 be 52 bd 43 26 7c be 64 62 91 bd 7b eb 82 3d
       -0.05145106 -0.2462397 -0.07098845 0.063925706
000030 73 d1 7c bc e0 89 15 be ad d3 41 bd a2 e6 0c 3d
       -0.015430796 -0.14603376 -0.04732101 0.034399636
000040 64 57 59 bd 65 70 dd ba 77 36 c0 3e 35 30 16 be
       -0.053061858 -0.0016894458 0.37541553 -0.14666827
000050 89 fe 3e 3d 68 a1 6c 3d 1a e9 ed bc 1a 8f 5c 3e
       0.046629462 0.057771116 -0.029041816 0.21538964
000060 1f 98 e6 bc 2c ee d4 3b 6a 37 6c 3b 44 ec 96 3d
       -0.028148709 0.006498119 0.0036043772 0.07369283
000070 7d e7 6f 3e f2 f5 85 bc 4c 0f 9e 3c 91 be a6 3d
       0.2342815 -0.016352627 0.019294403 0.081418164
000080 7f ff 4b 3d 60 23 ae 3d 27 bc d3 bd 09 cf 9e bc
       0.049804207 0.08502841 -0.103386216 -0.019385831
000090 c5 a6 7a 3b 83 a2 11 3e ea 9a 81 be ca b7 01 3a
       0.0038246375 0.1422215 -0.25313503 0.0004948346
0000a0 90 be 32 3d e3 f2 5a bc a4 4b 4a 3d c6 d6 ff 3c
       0.043638766 -0.013363573 0.049388543 0.031230342
0000b0 af 48 2f be 96 ec 73 3e ea 3b cc be cd 5e c4 be
       -0.1711757 0.23820719 -0.3988946 -0.38353577
0000c0 fa 45 86 bc 47 07 d8 3d 02 10 c8 3c 1c 45 d4 bc
       -0.01639079 0.10548263 0.024421696 -0.02591186
0000d0 8b 92 eb bd ff d6 54 3c 28 fe ea 3a ec 87 ab 3b
       -0.1150256 0.012990712 0.0017928528 0.005234709
0000e0 a4 52 8b 3c 0d 71 30 bd d4 e2 1a 3d 2b a0 8c bc
       0.01700718 -0.043076564 0.037813976 -0.017166218
0000f0 cd 8b b7 3c f2 26 ae 3e 42 c5 13 be 0d 1e 6c 3d
       0.02240553 0.34014088 -0.14430717 0.057645846
000100 50 e3 f6 bc 43 4e 6d 3e 0d 36 f1 bc de a7 27 be
       -0.030137688 0.23174386 -0.029444719 -0.1637263
000110 32 0a a7 b9 7e 8b d8 3c cc f5 5f 3d 15 54 10 be
       -0.00031860318 0.026433703 0.05467777 -0.14094575
000120 af 36 0a 3d 68 9a ea bc 40 f9 67 bb e6 4f 88 be
       0.033743557 -0.02863808 -0.0035396367 -0.26623458
000130 2e a0 bb bd 65 a5 74 bc d4 84 7e be ce aa 7f be
       -0.09161411 -0.014932011 -0.24855357 -0.249675
000140 e1 ed 14 3d d2 3b 80 3e 39 2b 22 be 6e e3 8d 3c
       0.03635967 0.2504564 -0.158368 0.017320361
000150 d1 ba 2d 3c 2c c9 f5 bd 74 fa b8 bd e1 36 06 be
       0.0106036225 -0.12001261 -0.09032145 -0.13106872
000160 d9 2e 7d 3b 7f fe 91 be 15 c9 3d bc 26 37 1b be
       0.003863266 -0.28514478 -0.011583586 -0.15157756
000170 82 68 2c be 18 d8 f1 be 43 e8 bd 3d 9d 01 48 3e
       -0.16836742 -0.4723518 0.09272816 0.19531865
000180 fb 60 4a 3e 72 ba 2e bb 46 35 8b 3e 65 ac b9 be
       0.19763558 -0.0026661423 0.27189082 -0.3626434
000190 2d 4e 18 bd bc 5a 04 3e b5 65 91 ba 50 22 ee bd
       -0.03718393 0.12925237 -0.0011092933 -0.11627638
0001a0 10 7f 55 3d d5 86 aa 3d 5b 02 34 bf e6 8e 35 bf
       0.05212313 0.083264984 -0.70316094 -0.7092117
0001b0 d1 88 11 be a3 58 05 3b 2b 97 63 3d 35 b9 6f bd
       -0.14212348 0.002034702 0.055564087 -0.058526237
0001c0 d0 55 19 be d3 ca 46 be 65 80 0f 3d e2 f3 93 bd
       -0.14974141 -0.19413309 0.035034556 -0.07224251
0001d0 be df c9 bd cc f1 2e 3d e4 82 26 be 16 ce 4a 3e
       -0.098571286 0.042711064 -0.16260868 0.19805178
0001e0 d3 3b 58 be b8 de 56 bd b8 0f 54 3b 99 59 56 3a
       -0.21116571 -0.052458495 0.0032358002 0.0008176803
0001f0 8a 2e f7 3c 26 5f 4d be 1a a3 9a be b1 6f 04 be
       0.030173559 -0.20055827 -0.30202562 -0.12933232
000200 5a e4 9e 3e b1 d7 99 be 70 c4 c5 bd 27 00 03 3f
       0.31033593 -0.30047372 -0.09656608 0.5117211
000210 c5 01 7f 3e d9 a5 8b 3e a3 55 ca bd ca 14 ff 3e
       0.24903019 0.2727497 -0.09879615 0.49820548
000220 e7 01 e5 3e 23 c7 6e 3e 1d af 40 3d 5e 10 fd 3e
       0.44728014 0.23318152 0.047042 0.4942655
000230 e0 e7 60 bc 57 f5 20 be eb 90 e4 bc 2c 23 03 bd
       -0.013727158 -0.1571859 -0.027901134 -0.032015964
000240 50 e5 3f 3c bb 06 13 3e 6f be c2 3e 66 e4 d1 3e
       0.011712387 0.14358036 0.38035914 0.40994567
000250 f0 15 0d 3f 1c a2 86 bc 4d 3b 23 bd 69 a6 85 bd
       0.551116 -0.016434722 -0.039851476 -0.06525881
000260 46 34 18 3d e8 d5 2f 3e 89 67 61 3e 95 ab 61 3d
       0.037159227 0.17171443 0.22012152 0.055095274
000270 f3 a5 49 3f 59 1c 69 3d f4 ae 83 bd d8 d2 c1 be
       0.78768843 0.0569118 -0.06429854 -0.37856174
000280 e6 7d b3 bc d7 6d cc 3d 0d 64 f6 3e d2 23 56 3e
       -0.021910619 0.09981888 0.48123208 0.20912102
000290 17 c1 d4 be 0e f3 f8 bd 71 d3 5a bd 6a 59 29 bd
       -0.41553566 -0.12155734 -0.053424302 -0.041345038
0002a0 e4 ff ab 3b ce f7 dc bc e2 6c 09 be 09 46 12 3c
       0.0052490104 -0.026973631 -0.13420442 0.0089278305
0002b0 59 a1 9f 3d 8e 4f 21 3e 2b 3d c9 3e fd f9 c5 3b
       0.077944465 0.15753004 0.3930448 0.006041764
0002c0 dd 60 0c be e3 c3 86 3d f9 27 65 3d fc 85 7a bd
       -0.13708825 0.06580331 0.055946324 -0.061162934
0002d0 e6 d0 6a 3e 24 ad 74 3e bf 9c 9d 3c e9 79 d1 bc
       0.22931251 0.23894173 0.019239781 -0.025570827
0002e0 83 ab 14 be 14 17 0a bc c6 32 4e 3f e7 23 81 bd
       -0.14518552 -0.008428354 0.80546224 -0.06305676
0002f0 e5 49 22 3c ea 88 89 3e 90 11 d4 3d 1c 8c 2b be
       0.009905313 0.2686227 0.10354912 -0.16752666
000300 ea 5a 4a 3f 32 c4 06 3e 14 3f 89 bc ee 0d 11 3d
       0.79044974 0.1316078 -0.01675371 0.035413675
000310 96 5b 8f 3c 99 1a a9 3b 20 a7 d2 be f1 f8 b4 bd
       0.017499726 0.0051606414 -0.4114313 -0.08836544
000320 a7 0e c6 3d c7 35 18 bd a1 e8 71 bd c5 06 29 3f
       0.096707635 -0.03716066 -0.059059743 0.66025954
000330 af 3f dd be fc 4a 53 be 32 61 a2 be 68 61 ad be
       -0.4321265 -0.20634073 -0.3171478 -0.33863378
000340 65 ce 17 3e c0 e2 8c bc 23 ec 42 3f f7 ea 1f 3d
       0.14824827 -0.017197967 0.76141566 0.03904244
000350 30 fd e0 3e 5c f1 c7 3d 41 31 1b bf 29 1a ba 3e
       0.43943167 0.097628325 -0.6062203 0.36348084
000360 59 1a 23 3f 0a b9 77 be f6 6d 0a be 1b 4c 09 be
       0.6371208 -0.2419168 -0.1351851 -0.13407938
000370 f5 e4 68 3d 09 07 22 be 1d be 52 3e 49 51 d0 be
       0.056858975 -0.15822996 0.20580335 -0.40687016
000380 92 67 d2 bc fd 9d 9e bc 16 85 98 3d 95 5d 04 3f
       -0.025684152 -0.019362444 0.07447259 0.51705295
000390 a8 5a 2e be 40 ae 84 3b 7a 71 a0 3b 53 1a 60 bd
       -0.1702677 0.0040490925 0.00489634 -0.054712605
0003a0 e5 28 f6 3d 0f 5e 4c 3d 7e e4 01 bf 67 ef 3f 3f
       0.12019519 0.04989439 -0.50739276 0.74974674
0003b0 e8 cc 4d be f8 0b 34 bb 01 3f db 3e 35 b0 93 be
       -0.20097697 -0.0027472954 0.42821506 -0.28845373
0003c0 64 91 af be ed c9 89 3e 05 89 e1 3d 38 97 a5 3e
       -0.34290612 0.2691187 0.110124625 0.32341933
0003d0 7f 19 33 3e 0d 88 1b bd 64 a6 0d 3e a5 26 34 3e
       0.17490195 -0.037971545 0.13833004 0.17592867
0003e0 44 23 82 3e 64 0b 35 3e 0a c5 ba bd ce 33 6f bc
       0.2541753 0.17680126 -0.091196135 -0.014599754
0003f0 9d ce 9b 3e c4 15 77 3e 34 9a b2 3e c0 c8 80 3e
       0.3043107 0.24129397 0.34883273 0.2515316

fc3.bias f4 [2]
000000 aa b0 26 3e 03 78 1e be
       0.1627833 -0.15475468
