checkpoint_critic.pth (torch_old, 81375 bytes, 5 tensors)

fcs1.weight f4 [128, 24]
00000000: 11a8 14be d11d 783e 2d8f 0ebd d8a9 d63c
00000010: 4545 4cbc 1f39 a63e 8bf2 163d d3e7 55bd
00000020: 75bb a0bd 6bc6 3f3e 88b5 90bb 0440 f23d
00000030: 902e f9bd da10 72bf 4ebf 6fbb 4f19 593d
00000040: 756f 953c e089 623e be73 173d 0a1e 44be
00000050: 13de c9bd 27c6 54bf 5f58 c33c ccec 43be
00000060: f8fa ebbd bff0 f9bc 5a33 9a3d 3c78 acbc
00000070: d039 b23e 075a 533e c4a2 9abd 06da bbbd
00000080: 56b3 a63d 53d2 043e eb8c 153d b0f2 34bd
00000090: d8a7 1ebd aebb 1cbf bb1b c43b 8ad9 b9bd
000000a0: 84cf 953d 7ff5 853d f66c 3b3d 98dd b93c
000000b0: 9ea7 04bf c095 eabe 29d9 cb3c 9049 92bd
000000c0: 1038 a1bd f65a 793e 7466 98bd 60b8 1d3d
000000d0: 69d1 223e 233d 62bb 9416 a93d ba54 8a3c
000000e0: 2b6e 5ebb d7e8 903c d7dd 793d 8bfa 75bd
000000f0: 79eb 86be 6226 f23d 1a54 8cbd 8640 903d
00000100: 1c07 3d3d e774 6dbb 81d5 3cbd 9062 edb9
00000110: 8b06 90bf 9439 81bc 2f46 353d 52c9 c7bc
00000120: 8001 473e ce84 193e a5eb 41bd dc00 19bc
00000130: 3f73 5b3d a677 18be a008 fa3c 2a8f a0bd
00000140: 5d81 e83d cdb4 293d 3594 0c3b ac47 77bb
00000150: 4efc 8cbc f0b9 c3bc 61ba bcbc c870 893d
00000160: 6fc5 653e aced ad3d 295a 283c e9ce 793c
00000170: 3fc4 2fbc a338 24be 9b66 38bc 47d2 c73c
00000180: 21d4 053e 0636 4c3e 7c16 67bd 4f75 4c3d
00000190: 9dfa 543d 28f9 17bf c9c6 c7bb 8c91 a3bd
000001a0: f3c6 143e eb6d 753e b8e2 803c 55ae c0bc
000001b0: 2271 d03d 2412 ebbe fa01 d8bc 9984 ac3d
000001c0: 7d8c 5e3e 4668 8b3e 19b3 ca3c 3c7d 0d3d
000001d0: b528 7e3e 3c0e e7be edb3 82bc 8aa9 b73c
000001e0: 88fd b33b 590e a03e a4f0 243c 8616 1ebd
000001f0: 3e76 813c da3b 3cbe 66bb 4c3d 0a97 aa3d
00000200: fcb3 943c ba84 e33e a6a7 5fbc 9c2e 053e
00000210: 4599 133e fe7b 0ebf 82f4 163d fc58 e23b
00000220: 38ba 833d 93a9 aa3e 1dda d83d 3093 ce3d
00000230: 6861 6d3e f7ef 67bf 113d 163c 0dc3 883c
00000240: 40c7 533e d384 f43d 4d55 60bc 9410 c8bd
00000250: 1307 113d 64fe b0bd e48f c5bc 0629 78bd
00000260: 36ad 7e3e 972f 123d 3e38 73bd a75d 2dbd
00000270: 9df3 bb3d b004 50bd 97f6 e63c 262a fc3d
00000280: 9496 9a3e a967 033d 5959 92bc 7ce1 4b3d
00000290: 6536 45bc 10f6 4bbe b2fc 853c 4028 78bd
000002a0: 7048 a43d 3c41 713d 6148 41bd c3a0 3e3d
000002b0: 1ae4 783c f882 b3bd 7b07 ff3c a5ca 0c3b
000002c0: 9cf1 613e 28ec 973d a0ff 2ebd b0b5 35bd
000002d0: 2324 c13c 0053 1abe 68ce 003d 7882 81bd
000002e0: 7452 953e 5f46 b93d 5da7 51bd 3857 6f3d
000002f0: 34ce 09bd 0d17 43be c4fe b03c 73ae 8bbc
00000300: 110e 323e cea0 b0bd 3fba 1fbd 9333 89bd
00000310: ff85 1c3e 57b9 8cbe 59fe 32bd a523 acbd
00000320: 56ea 583e bfc3 41bc 0edf a9bd 2ad2 5ebd
00000330: b0b6 143e a7e6 e1be 5b9f 693d 10f9 2b3d
00000340: fe42 a03e 4e0e f13c fdc6 38bd 688c eabd
00000350: 6cc0 3b3c 349d cdbd 78be e3bc 623e 8abd
00000360: 2239 983c dde8 633e 5e66 5b3d 6b10 e33c
00000370: 77b2 973d eb91 a63e 4409 51bd e846 5ebd
00000380: 10bf a9bc fcfd ae3e 4215 88bc 37c2 71bc
00000390: 6e31 ccbc 5e65 bb3d d020 b03c d3f2 8d3d
000003a0: e067 6bbc e1ce 0a3f e0f5 4abd e2ba 603e
000003b0: beca febd 3b78 6dbf 3eea 3e3d f4c2 913e
000003c0: 0286 873e 5cee 463e 588e 13bd 6cae 2e3e
000003d0: 3428 a53c 877f 50be d4a6 ba3c 636c d73d
000003e0: d9ed 933e c04c 003e 0437 7c3c 1b20 9fbc
000003f0: 3e19 01bd 6ad4 a1be 506a e0bc dcee af3d
-0.14517237 0.24230124 -0.03480451 0.026204035 -0.012467687 0.32465455 0.0368524 -0.052223038
-0.078482546 0.18728034 -0.0044161715 0.11828616 -0.12167084 -0.94556963 -0.0036582532 0.05300265
0.018241623 0.22122908 0.036975615 -0.19152084 -0.098568104 -0.83114856 0.02384585 -0.191333
-0.11522478 -0.030510304 0.07529326 -0.021053426 0.34809732 0.20639811 -0.07550576 -0.09172444
0.08139674 0.12970857 0.036511343 -0.044176757 -0.038734287 -0.61223876 0.005984751 -0.090746954
0.07314971 0.06540965 0.04575821 0.022688672 -0.51818264 -0.45817375 0.024883823 -0.07142937
-0.07872021 0.24351105 -0.074414164 0.03850591 0.15900196 -0.0034521304 0.082562596 0.016886104
-0.0033940177 0.017689152 0.06100258 -0.06005339 -0.26351526 0.11823727 -0.068519786 0.07043557
0.04614936 -0.003623301 -0.04610205 -0.00045277597 -1.1251997 -0.015774526 0.044256385 -0.02438799
0.19434166 0.14992067 -0.04734387 -0.009338584 0.053576704 -0.14889392 0.03052169 -0.078398064
0.11352799 0.04143219 0.0021450643 -0.0037731929 -0.017210152 -0.023892373 -0.023038091 0.067109644
0.22438596 0.08492598 0.010275402 0.015247085 -0.010727941 -0.1603723 -0.011254932 0.02439226
0.13069202 0.19942483 -0.056417927 0.04991656 0.051996816 -0.5936456 -0.006096695 -0.07986745
0.14529018 0.23967712 0.015733108 -0.023520628 0.10177828 -0.45912278 -0.02636813 0.084237285
0.2173328 0.27227992 0.024743604 0.03454326 0.24820216 -0.45128047 -0.015954936 0.02241971
0.0054928698 0.31260946 0.010067139 -0.0385957 0.015803453 -0.18382207 0.049983405 0.0832959
0.01815223 0.444372 -0.01365081 0.13006061 0.14413936 -0.5565795 0.036854275 0.0069075804
0.06432003 0.333325 0.10588477 0.100866675 0.23181689 -0.9060053 0.009169833 0.01669457
0.20681477 0.11939397 -0.013692212 -0.09768787 0.035407137 -0.08642271 -0.024116464 -0.060585998
0.24870762 0.035689916 -0.05937981 -0.042325642 0.09177325 -0.05078572 0.028193755 0.12312727
0.30193007 0.03208128 -0.01786487 0.049775586 -0.012036894 -0.19918084 0.016355846 -0.06058526
0.08021629 0.058900103 -0.047188167 0.046540033 0.015191102 -0.08765215 0.031131497 0.002148309
0.22064823 0.0741809 -0.04272425 -0.044362724 0.023576802 -0.15070724 0.031446844 -0.06323713
0.2916447 0.09046625 -0.051185 0.058432788 -0.033643916 -0.19051762 0.021605857 -0.017050957
0.17388178 -0.08624421 -0.038995977 -0.0669929 0.1528549 -0.27485153 -0.043699596 -0.08405236
0.21183142 -0.011826455 -0.082944974 -0.054399647 0.14522815 -0.44121286 0.05703674 0.04198557
0.3130111 0.029425766 -0.045111645 -0.114525616 0.011459451 -0.1003975 -0.027800784 -0.0675018
0.01858193 0.22256799 0.05356442 0.02771779 0.07407086 0.32533202 -0.051034227 -0.05426684
-0.020720989 0.3417815 -0.016611699 -0.014755777 -0.024925914 0.09150194 0.021500021 0.06931081
-0.014368027 0.5422192 -0.04955089 0.2194629 -0.12441014 -0.9276158 0.04661011 0.2846905
0.26469427 0.19426864 -0.03602442 0.17058724 0.020160772 -0.20361148 0.022784628 0.1051872
0.288924 0.12529278 0.015393976 -0.019424489 -0.031518213 -0.31607372 -0.027394444 0.08590481

fcs1.bias f4 [128]
00000000: 9caa e8bd 1f36 9abd e5da 09bf 3053 c4be
00000010: 4490 ddbe d552 60bd d5e4 30bd 98f6 a3be
00000020: 119d 50be fcb4 d03e 15bc 9fbe 613a cf3b
00000030: 1fdd 59be bb06 94bb f0f9 04bd 5bf1 33be
00000040: cbda a1be 51b7 1cbe 0cb7 dfbe fa12 0cbd
00000050: ff98 8fbe 13d9 7ebe d65a 3bbf 046a 09be
00000060: 4603 eebd 35ea 8bbd 7a56 13be e9e5 f53d
00000070: e06e b93d 3ef4 82be bd9f b7be ce2a a6be
00000080: 64da b93d f222 8b3e 5da0 5d3c 58cd 24be
00000090: 70f0 1dbe 06e6 d33e a7a1 93bd 467f 43be
000000a0: 02cd 46bc 4d59 81be 0da1 b9be 3a9c ea3d
000000b0: 01e5 c73d 22a8 febe f7c3 0abe 065d 693e
000000c0: 0273 9fbe b1f8 78be 0ab2 383e 7752 f23e
000000d0: d9b8 a5be 7d45 0abe fee0 cbbd aacb 9b3e
000000e0: 0bba 8fbd e3d8 073e ad57 b83b 4151 2ebd
000000f0: dd7e 913c c3a1 bdbe 2687 67be 9505 b73e
00000100: 95bd 1fbf 5f36 a93d 30bb c0bd 5419 46be
00000110: 1d64 b1bd 583f 8abe d9d9 a3be a005 eabd
00000120: 24c7 6d3e 3c2e c23d 9e94 edbe 8dcf b3be
00000130: 2404 10be f8a5 03be a94f b9be e46f 2dbe
00000140: 89d5 383e f0b6 03be d5fd 97bd 318a b7be
00000150: ab89 51be 9be2 d83b 3e72 01bf 162d a3be
00000160: d54a 99be 2dd0 a63e fb2a 95bc ca88 88be
00000170: 13df de3e c6a2 fabe 9626 ac3d d01c f2be
00000180: 529c b8bd 2eb2 9abb bb42 943c 9a38 303c
00000190: debc 97be d832 4c3d 087c 12be 25b6 77be
000001a0: 7239 9d3d 77f5 8fbe 661b 17be cbea 2bbe
000001b0: 061e edbe 005b 62be 077c 653e 96ef 41be
000001c0: 4bf2 943e 425e 89be 994b ecbe 585f 32bf
000001d0: 2e16 cdbe 2499 dcbd 8003 f43c a20e a73e
000001e0: 8644 84be e63b 97be 53b7 b3ba de05 293d
000001f0: 6ec8 fdbd 10cc d23d fa50 cbbe a9d0 923e
-0.11360666 -0.07529854 -0.5384963 -0.38344717 -0.43274128 -0.054766495 -0.04318698 -0.32024074
-0.20372416 0.4076308 -0.31198183 0.006324098 -0.21275757 -0.004517404 -0.03246492 -0.17572539
-0.31612238 -0.15304305 -0.4369434 -0.034197785 -0.28046414 -0.24887495 -0.7318548 -0.13419348
-0.11621718 -0.06831781 -0.14388457 0.120067425 0.09054351 -0.25576967 -0.35864058 -0.32454532
0.09074858 0.271751 0.013527003 -0.16093957 -0.15423751 0.4138643 -0.07208567 -0.1909152
-0.012133839 -0.25263444 -0.36255684 0.11455579 0.09760476 -0.4973765 -0.13551317 0.22789392
-0.31142431 -0.24313618 0.18036667 0.4732854 -0.3236759 -0.1350307 -0.09955023 0.3042882
-0.07017907 0.1326633 0.005625686 -0.04255796 0.017760688 -0.37037477 -0.22610149 0.35746446
-0.62398654 0.082623236 -0.09410703 -0.193456 -0.08661673 -0.27001452 -0.32002142 -0.11426854
0.23220497 0.09481475 -0.46402448 -0.35119286 -0.1406408 -0.12856281 -0.36193588 -0.16937214
0.18050207 -0.12862754 -0.074214615 -0.3584762 -0.20462672 0.0066188104 -0.50564945 -0.31870335
-0.29939905 0.325807 -0.018208971 -0.26666862 0.43529567 -0.4895231 0.08405797 -0.47287607
-0.09014191 -0.0047209477 0.018098226 0.010755682 -0.29636282 0.049853176 -0.14305127 -0.24190576
0.076769724 -0.28116962 -0.14756545 -0.16788785 -0.4631197 -0.22105026 0.22410594 -0.18939051
0.29091105 -0.26829726 -0.46151426 -0.69676733 -0.40055984 -0.10771397 0.029786825 0.3262835
-0.2583353 -0.29537886 -0.0013711251 0.04126536 -0.123917446 0.10292828 -0.39710218 0.2867482

fc2.weight f4 [128, 130]
00000000: e2a5 293c 3952 0ebe 278b 7dbd 3b30 cd3c
00000010: 6cab 3fbd 30b2 343d 450d babd 3602 5bbd
00000020: 7caa 523d 3e1f 9b3d e96c 843d 4e3c 813d
00000030: ccde 263c dbfd 96bd e43c 623d d423 5e3d
00000040: f91f c0bc cbed b8bd 9a36 92bd 5516 9c3d
00000050: c1d6 18bc ac58 bdbd fdba cdbc c90b 613d
00000060: 01d1 9fbd c02d 97bd a9fa 8abc 6bc4 b4bc
00000070: 3e40 bebd 624c 15bd 80ca 87bd bda1 3d3d
00000080: 8f20 0cbe 84e7 c63c ccdd c4bd 5498 5a3d
00000090: 6531 95bd cbb3 11bd d51f acbc 35a0 1bbd
000000a0: 5616 2abd ea18 623d 5c78 3fbd 5ce0 54bd
000000b0: b6dd 37bd 76b2 3ebc 51a3 abbd 2711 07be
000000c0: 0f5c d4bc 120c 9abd 5ab9 03bc 179b 833d
000000d0: 8f9a 723d 0103 b1bd 955f bc3c c5d7 a6bd
000000e0: 77e6 013c 24ba 91bd 86b4 693d 1218 82bc
000000f0: 91db 8cbc 9255 b13d 7993 41bd b80c d9bb
00000100: 2d9c 03be c97f 5b3c b55d af3a 7588 b0bd
00000110: b582 97bd 0b45 2b3d 383b ac3c 9085 9dbd
00000120: ef80 bebc e932 81bd 99e3 3a3d 30d0 edbd
00000130: c2a6 7c3c 75ae 483d 1330 cb3d 5295 80bd
00000140: 3f55 27be 08dd dd3c 230a a1bd 9a68 ff3b
00000150: f49e 8e3d 1a60 06bd 6dc3 afbd 48fa 50bd
00000160: 2593 113d 5ba3 abbc 41f5 9e3c 9036 64bd
00000170: ed57 1dbe 80bf acbd e6e4 efbc 0829 74bb
00000180: 6951 8cbd 628b 373c 9d79 22bd f474 afbd
00000190: d0c2 393d f404 383d 83d4 abbc fed5 afbd
000001a0: 2a7e 59bd 33c3 07bd 9258 c1bd 7b83 9bbd
000001b0: 5ee1 3f3d 2094 0ebe 4741 adbd b177 953d
000001c0: 56d3 25bd ba3f 3cbe af94 c8bd 8bde 8ebd
000001d0: 5165 fabc ec41 b9bd 76e1 6e3b 3635 143d
000001e0: 987f 84bd f1bb 37bd 16c3 a9ba 92b1 ccbd
000001f0: c819 1fbb 7570 7abc 3f20 53bd 0f7f 96bc
00000200: fcbb e5bb e50f c93d 2baa fe3c 05a4 0fbd
00000210: 9436 01bb e8e8 09bd f521 773a b42a aebd
00000220: faa4 703d e967 713b 63f5 2bbc 8db4 28bd
00000230: da58 63bd f71f 703d 3bb4 053d 84a5 993d
00000240: 7892 1a3c 3222 d13c 3582 6c3d 83e5 603d
00000250: 6534 c3bd 2a53 9fbd e538 0a3d a311 e13c
00000260: 1f5b ef3c cd26 02bb 6615 afbd a5cd 18bd
00000270: c284 46bd badd c6bd 0ce8 d5bc 9d2f eebd
00000280: 6f82 dcba 0525 3e3d 1bc8 d0bd f52f 19bb
00000290: bc21 afbd 24e5 55bb e417 733d 3fce 29bc
000002a0: fe00 b4bd a63c 583c 9577 303d b57b 02be
000002b0: 18b4 443d 1b24 06be 1382 00bd 5add 01bd
000002c0: 41e9 c2bd fbe6 6bbb e42b d2bc a5a1 583c
000002d0: 7eb8 aebb c93b 97bd aaac 57bd 8d14 183d
000002e0: 15c7 d9bb e2dd 6b3d aa45 aabb 4daa acbc
000002f0: 4aba 3ebd 6371 ee3c 47d1 863c b447 74bd
00000300: 00fc 5a3c 24ad d1bd 56aa 22bd e714 70bd
00000310: 797b febc fd75 37bd 709e b7bd 900e 893d
00000320: 15ec a0bd ddad c6bd 1d1f ba3c c123 14bd
00000330: 974d 083d 5385 efbd fd03 ffb9 b4f4 29bd
00000340: 052c 0c3d 9abe 6fbd 5e76 02bd 6e83 b3bd
00000350: e8af e53c 6d39 b6bd 4ab5 233d bf74 133d
00000360: 6ab3 a4bd 204d 76bd 5dcc 95bd 0441 b5bd
00000370: 37b2 d6bd a28c c7bc 8ddc 87bc 896f babd
00000380: 3438 afbd a0d0 0c3d 6319 edbc a426 e7bd
00000390: 4fed 65bd 2d2f c93c bd04 8dbd d593 af3c
000003a0: 8071 73bd 4e15 223d c125 eb3c 1ec2 89bd
000003b0: 91a7 3fbd 5e88 a9bd 9996 833b 422a ebbd
000003c0: 26a0 a1bc cbb9 8e3c 0253 a4bb efd3 09be
000003d0: 3273 8bbd f060 cfbd f4cf 3ebc 87b8 aebd
000003e0: a8a6 083d a3d0 bfbd 706c 01be d742 ddbd
000003f0: 5ba5 f53b 442d 543c 8396 14bd bed2 73bd
0.010354491 -0.13898553 -0.061900284 0.025047412 -0.04679434 0.044115245 -0.09084562 -0.053468905
0.051432118 0.07574318 0.064660855 0.0631033 0.010184955 -0.07372638 0.05523385 0.054233387
-0.023452746 -0.090297304 -0.07139321 0.07621447 -0.009328545 -0.092454284 -0.025113577 0.05494288
-0.07803536 -0.07381773 -0.016965227 -0.022066316 -0.09289597 -0.036449797 -0.06630421 0.046296824
-0.13684295 0.024280317 -0.09612617 0.053367928 -0.07284812 -0.035571855 -0.021011272 -0.037994582
-0.041525207 0.05519954 -0.046745643 -0.05197178 -0.044889174 -0.011639228 -0.083807595 -0.13190137
-0.025922803 -0.075218335 -0.008039797 0.064260654 0.05922943 -0.08643151 0.022994796 -0.081466235
0.007928482 -0.07115582 0.057056926 -0.015880618 -0.017194541 0.08658899 -0.04725978 -0.0066238306
-0.12852545 0.013397166 0.0013379367 -0.08619777 -0.07397977 0.04181389 0.021024331 -0.07691491
-0.02325484 -0.063085385 0.04562721 -0.11611974 0.015420618 0.0489945 0.09921279 -0.062784806
-0.16341113 0.027082935 -0.078632616 0.007794452 0.06963912 -0.032806493 -0.085821964 -0.051019937
0.03554072 -0.020951917 0.019404056 -0.055716097 -0.15365572 -0.08434963 -0.029283952 -0.0037255902
-0.06851465 0.011202665 -0.03966676 -0.08567229 0.045351803 0.0449266 -0.020975357 -0.08585738
-0.053098835 -0.03314514 -0.094407216 -0.07593437 0.046845786 -0.13923693 -0.08459716 0.0729822
-0.04048475 -0.18383685 -0.09793984 -0.069760405 -0.03056589 -0.09045777 0.0036450303 0.03618356
-0.06469649 -0.04485697 -0.0012951817 -0.09994806 -0.0024276841 -0.015285601 -0.051544424 -0.018371133
-0.007010935 0.09817485 0.031087002 -0.03506853 -0.001971637 -0.033669382 0.0009427362 -0.08504239
0.058751084 0.0036835617 -0.0104955165 -0.04118781 -0.055504657 0.058624234 0.032642584 0.07502273
0.009434335 0.025529 0.057741363 0.05490638 -0.09531478 -0.07779534 0.033745665 0.02747423
0.029218255 -0.0019859553 -0.08549003 -0.037305493 -0.04846645 -0.0971026 -0.026111625 -0.11630175
-0.001682354 0.046422023 -0.10194417 -0.0023374532 -0.08551356 -0.00326378 0.059348956 -0.010364114
-0.08789252 0.013198053 0.043082792 -0.12742503 0.048023313 -0.1309971 -0.03137405 -0.031705238
-0.09517146 -0.003599583 -0.025655694 0.013222133 -0.005332052 -0.0738445 -0.0526549 0.037128974
-0.006646047 0.05758465 -0.005196293 -0.0210773 -0.046564378 0.029106801 0.016457213 -0.059638694
0.013365746 -0.10238102 -0.039713226 -0.058613684 -0.031064736 -0.044790257 -0.089657664 0.06692231
-0.07857529 -0.097011305 0.022719914 -0.03616691 0.03327712 -0.116953515 -0.00048640362 -0.041493133
0.034221668 -0.05853138 -0.031851165 -0.087653026 0.02803798 -0.08897672 0.039967813 0.03600001
-0.08042033 -0.060132146 -0.0731437 -0.08850291 -0.104832105 -0.024359051 -0.016584659 -0.09103305
-0.08555642 0.034378648 -0.02894277 -0.11286667 -0.05613452 0.024558628 -0.068856694 0.021432796
-0.059434414 0.0395711 0.028704526 -0.06726478 -0.046790663 -0.08277963 0.0040157554 -0.114826694
-0.019729685 0.017422577 -0.005014778 -0.13459753 -0.06809081 -0.10125911 -0.01164626 -0.085312895
0.03336206 -0.09365966 -0.12639022 -0.10803764 0.0074965185 0.012950245 -0.03627635 -0.05952715

fc2.bias f4 [128]
00000000: e904 a93c cdb9 b7bd 6e0c a5bd 99ae 15bd
00000010: 9306 0f3b 3d4f afbc 6101 94bd e809 7bbd
00000020: a5e6 42bd 800c f7bd d8e5 28be 421e a8bd
00000030: 0963 cfbc 46c1 a3bd 581d dbbd 7198 1bbc
00000040: 8b6f 21bd e47f ebbc da43 cf3c 5f16 b0bd
00000050: b365 b9bd 37b6 ddbd 81cf 593e f4eb 26bc
00000060: 8e8a 0ebe 17ed 26bd 46b1 e9bd 559a e9bd
00000070: 83e0 7abc 389d d7bd 96c1 0dbe 99d2 5d3c
00000080: c718 e13c e1f5 b63b 3f54 0a3d 1761 1ebd
00000090: 8ca1 cc3a 3a15 0c3e 0288 e9bd 81eb babd
000000a0: 974a ebbd 01c9 21be b22d 12be a0b8 06be
000000b0: 526d ab3b 969d babd 23cf 1fbd af01 05be
000000c0: f5b9 f339 0a50 b0bd 284e 343d de0a 733d
000000d0: 24c4 a6bd 66bc 94bd 1a6b 06be e756 43bd
000000e0: 676a a6bd 87be fabd a468 afbd 1a1f 55bb
000000f0: ed49 e3bd 6469 4b3d d7e2 9bbd 5dc7 abbd
00000100: 3ff8 28bd 7c23 92bd de2a 29be e70c 5ebd
00000110: 85b8 7c3d 30ca c73c 8620 e1bd aba5 063d
00000120: 3359 30bd 5ac3 bfbd 1391 74bd c55e 4e3c
00000130: 3a77 233d 3c39 ed3c 5d73 053b b960 06be
00000140: 5caf 0abe a60a 913d 9947 41bc df87 13bc
00000150: f837 a5bc df0e 50bd edc6 9d3c 2eec 8a3d
00000160: d28f 86bd 922d 263d a910 55bd 3627 24bc
00000170: b5f0 54bd afaf 04bd 8a6d 20be e439 fdbd
00000180: 78f3 8ebb bb48 fdbc 1781 5fbc 09e7 cfbd
00000190: f81f 02be 9b2c 97ba cc9c 0e3f 161d c5bd
000001a0: 9915 4e3c c759 663d 876f a3bb f003 17bd
000001b0: 9a2a 693c 693e 98bd 09e7 6fbd 6e83 0dbe
000001c0: 530c 2ebe 71c2 12be cc7f 23be 6522 a2bd
000001d0: 2f98 0dbc 14d3 f7bd f793 33bd e616 05be
000001e0: 15ac efbc 31f9 ddbd e0eb e7bd d112 ccbd
000001f0: 665e 59bd 8e92 a6bd 7e00 debd bac2 8abd
0.020632224 -0.089709856 -0.080590114 -0.036543462 0.0021823987 -0.021400088 -0.072268255 -0.061288744
-0.04758324 -0.12062931 -0.16493928 -0.08208896 -0.025315778 -0.07995848 -0.10698956 -0.009496794
-0.039413016 -0.028747506 0.025300909 -0.08598017 -0.09052601 -0.1082577 0.21270563 -0.010188092
-0.13920042 -0.04075345 -0.11410765 -0.114063896 -0.015312317 -0.10528034 -0.13843378 0.01353898
0.027477635 0.0055835103 0.03377175 -0.03866681 0.001561211 0.13679972 -0.114028946 -0.0912695
-0.11488836 -0.15799333 -0.14275244 -0.13156366 0.005231538 -0.091120884 -0.0390159 -0.12988923
0.0004648712 -0.08609016 0.044019848 0.059336536 -0.081428796 -0.07262497 -0.13126794 -0.0476903
-0.081257634 -0.122433715 -0.085648805 -0.0032519759 -0.110980846 0.049661055 -0.07611626 -0.08387635
-0.04125237 -0.07135674 -0.16520259 -0.054211523 0.06169941 0.024388403 -0.109925315 0.032872837
-0.043053817 -0.09363432 -0.059708666 0.012595837 0.039908625 0.028957956 0.0020362951 -0.13122834
-0.13543457 0.07082109 -0.011796855 -0.009004562 -0.02016829 -0.050795432 0.019259894 0.06783329
-0.065704 0.040570803 -0.05201784 -0.010019114 -0.05198737 -0.032394107 -0.15666786 -0.123645574
-0.00436252 -0.03091847 -0.013641617 -0.10151488 -0.12707508 -0.0011533679 0.55708003 -0.09624688
0.0125783915 0.056237962 -0.0049876603 -0.03686899 0.014231348 -0.07433779 -0.05856994 -0.13819668
-0.16996889 -0.14331986 -0.1596672 -0.079167165 -0.00864224 -0.12100807 -0.043842282 -0.12997016
-0.02925686 -0.10838545 -0.113242865 -0.099645264 -0.05306854 -0.08133422 -0.108399376 -0.067754224

fc4.weight f4 [1, 128]
00000000: 03d2 f03c 50ce 43bc e5c7 d5bb 8954 10bc
00000010: 256c b23c 6425 bf3c 7ffb b93b 482b c73b
00000020: 317b 4abb 775b 81bb 563b 2c3c 1b7b 923b
00000030: 01e2 df3c 2a4d 79bb afe3 a33c 5fda cd3b
00000040: 01c1 3c3c 2234 a33a a8ab 1bbc 1c1c f1bb
00000050: c780 453c df4d 8dbc 89fc 5fbc 3962 863c
00000060: 6958 2f3c e4f2 82bb 42d9 c43c a834 7e3b
00000070: e31d f1bc 4e19 9f3b a4fd 5d3a 2805 e1bc
00000080: f987 253c c310 09bb 4b7c ba3c 56db abbc
00000090: 142b 64bb 36ae 68bc ff09 fbbb 825a 88bc
000000a0: 568f 093d 45ed cebc b03b e63b d258 d0bb
000000b0: 9137 5cbc 4acc ebbb ebf0 19bb baaf 52b8
000000c0: 1e00 e3bc e074 8abb 2081 253d e697 9bba
000000d0: 6e4f 1cbc 36bf 2cbc 8e07 49bc 912a a2bc
000000e0: 1772 eb3b d32e 183c 0f79 12ba 813a 183d
000000f0: c2a2 d5bc be45 c43c 2657 12bc ff46 f4bc
00000100: 1f5a b43a 2d3f 093c d94d 193d 5dac 573c
00000110: a09d 0a3b 3f1a fc3b 0e16 b13c fd69 44bc
00000120: 7787 17bd 0c68 a4bc 5e74 92ba 6ddc 913c
00000130: c012 b83c 60b2 343c 1249 de38 d828 523b
00000140: 40a3 f13b 4aa3 1bbd 4a08 b8ba 1e1d 263c
00000150: 0ba4 de3c 2efa 553b 1b24 9abc f751 213d
00000160: f6d4 ae3b 42f9 afb8 585f 853b beed 343c
00000170: efcd 22bb de22 16bc 5dd6 e9bc b543 c43a
00000180: 31ec c33c a76c a8bc 4cc0 24bb ad80 4f3c
00000190: f97a 753b 899a 863c 96e0 7c3d 7512 be3b
000001a0: 603a bebc 5ea4 fe3a 95ec 51bc 4803 debb
000001b0: 18ef 8f3c 2d77 9fbb 1343 91bb 601f 2a3c
000001c0: 1461 c13c 248b 8ebc 2c5d c83b 3a61 c4bb
000001d0: f0eb b53c 8c57 c7bb f52d 9bbc 1d8d 0dbc
000001e0: 43e3 df3c 35e7 00bc 6ac8 ce3c 140e 3cbd
000001f0: 8a7f 47bb 2b1f b13c c96e aabc bdfd feba
0.029397016 -0.011951044 -0.0065240734 -0.008809217 0.021780083 0.023333259 0.0056757326 0.0060781576
-0.0030896182 -0.003947671 0.010512194 0.0044702417 0.027329447 -0.0038040378 0.020006029 0.0062821354
0.011520625 0.001245145 -0.009501375 -0.007358087 0.012054629 -0.017249046 -0.013671049 0.016404258
0.010702231 -0.00399624 0.024029378 0.003878871 -0.029433196 0.0048553115 0.00084682764 -0.027468279
0.010103219 -0.0020914532 0.022764346 -0.020978611 -0.0034815716 -0.014201691 -0.0076611037 -0.01664472
0.03358396 -0.025259623 0.0070261583 -0.0063582445 -0.013440982 -0.007195984 -0.0023489546 -5.023156e-05
-0.027710017 -0.0042253584 0.040406346 -0.0011870831 -0.009540422 -0.010543635 -0.012269868 -0.019795688
0.0071852314 0.0092885075 -0.0005587497 0.03716517 -0.026078586 0.023959037 -0.008931911 -0.02981901
0.0013759768 0.008376879 0.037427757 0.013163653 0.002115108 0.0076935585 0.021616962 -0.01198816
-0.036994424 -0.020069145 -0.0011173596 0.017805303 0.022469878 0.011028856 0.00010599395 0.0032067802
0.0073741972 -0.03799752 -0.0014040556 0.010138778 0.027177831 0.003265034 -0.018816045 0.03938481
0.0053354455 -8.391078e-05 0.0040702038 0.01104301 -0.0024841984 -0.009163586 -0.0285446 0.0014973792
0.023916336 -0.020559622 -0.0025139032 0.012664956 0.003745733 0.01643111 0.06173762 0.00580054
-0.023221195 0.0019427647 -0.012812753 -0.0067752935 0.017570063 -0.004866502 -0.0044330447 0.010383457
0.02360586 -0.017400332 0.0061146226 -0.0059930356 0.02220723 -0.0060834344 -0.018942812 -0.008639601
0.027330047 -0.007867624 0.02524205 -0.045911863 -0.003044101 0.021621307 -0.02080478 -0.0019454282
